saved_models/stockkan_model.pth (torch, 117908 bytes, 7 tensors)

encoder.0.weight f4 [64, 180]
000000 af db 89 3e 30 c8 69 3d cd 3f 1b be dc 72 bf bd
       0.26925418 0.05707568 -0.15161057 -0.093480796
000010 c4 c6 26 be 8c 9c fa bd cd f9 cc 3c 0a a0 18 be
       -0.1628676 -0.1223689 0.025021458 -0.149048
000020 98 1a b6 3c fb e2 23 bd f2 8c ad bc d0 00 81 3b
       0.022229478 -0.040011387 -0.021185372 0.0039368644
000030 61 17 2b be 98 db 9f bc ee fa 04 bd 1d f8 6a ba
       -0.16708137 -0.01951389 -0.032465868 -0.00089633634
000040 3a 67 f1 bd 1a 23 d7 bd 4b 68 eb bd c2 28 93 bd
       -0.11787267 -0.10504742 -0.11494502 -0.07185508
000050 e6 83 c1 bd c8 3e f1 3d ed 9e cc bc 37 38 38 bd
       -0.09448986 0.11779553 -0.024978125 -0.044975486
000060 1b 93 e1 bd a1 75 0e be c8 7e f3 3c 58 4e 19 bd
       -0.11014386 -0.1391206 0.02972354 -0.03742823
000070 75 db 0c be 87 cf 47 bd fe 06 f0 bd 9c b7 88 bd
       -0.13755591 -0.048781898 -0.11720084 -0.06675646
000080 56 58 8b 3d e8 34 72 3e 5a 93 b3 3d 5b 7c c2 bc
       0.06803958 0.23652995 0.087683395 -0.023740938
000090 02 78 e4 bd 9c 27 ee bd ca 86 9e bc f1 d2 29 3e
       -0.11155702 -0.11628649 -0.019351382 0.16584374
0000a0 d2 3e 4c bd 59 ab 4c bd bd 91 29 3d fe b1 ba 3c
       -0.049864598 -0.049968097 0.041398752 0.022789951
0000b0 8d f7 84 3d 07 44 ca bc c1 d7 68 3d 8f 54 3c 3c
       0.06492529 -0.024690641 0.056846384 0.01149477
0000c0 c8 18 22 be d3 9c b4 bd 8b bf dc bc 11 2a 19 be
       -0.15829766 -0.08818974 -0.026946804 -0.14957453
0000d0 5e 16 28 bd bd 0f 7b 3d be 44 36 bd 58 a3 03 be
       -0.041036956 0.061294306 -0.04449915 -0.1285528
0000e0 26 04 b8 3c 5c 74 a7 3d 1e d2 a1 bd 4d c1 b0 bc
       0.022462916 0.08176491 -0.07901405 -0.021576548
0000f0 43 8b 99 3d 6b cc da bd ea f1 f6 bd 8f e8 ce 3c
       0.07497265 -0.10683521 -0.1205786 0.025257377
000100 b9 cd 7d 3d dd 1a 35 bd 22 0d 9e 3c b6 39 b2 3d
       0.06196377 -0.044215072 0.019293372 0.08702414
000110 14 97 21 bc c1 2c b5 bd cf 5a 01 3e 36 df b2 bd
       -0.00986268 -0.08846427 0.12632297 -0.0873398
000120 11 9a 01 3e 32 d4 55 3d dd 0e 79 3d d1 8d 80 3d
       0.12656428 0.05220432 0.06080519 0.06277049
000130 89 42 35 3d d1 93 2d bd 18 b1 89 bc a0 64 0a 3d
       0.044252906 -0.042377297 -0.016808078 0.03378737
000140 f3 8e 20 3d 97 1d 41 3d 89 0b 1b 3e cb 4c 66 bd
       0.039198827 0.04714736 0.15141119 -0.05622558
000150 fe 17 f7 bd af 06 ac 3d 05 e9 f5 bc cc 1f 3c 3e
       -0.12065123 0.08399712 -0.030018339 0.18371505
000160 92 01 b4 3d 76 5e 48 bd d5 f0 fc bd 95 77 27 3d
       0.08789362 -0.04891821 -0.123506226 0.040885527
000170 a6 db f3 3c a0 c7 93 3d f4 7c 43 bd 3e e3 27 3c
       0.029767822 0.0721581 -0.047726586 0.01024705
000180 12 2a 56 3c 7f dc d2 bd e3 04 95 3c 04 99 2b be
       0.013071554 -0.102959625 0.018190807 -0.1675759
000190 7c 98 d2 bd f3 0d ac bd d3 53 6b bd 5e d0 d8 bd
       -0.1028299 -0.08401098 -0.057452988 -0.10586618
0001a0 0a d1 37 3d d4 94 62 3e 18 a2 46 bc 4d a8 8d bd
       0.04487709 0.22127086 -0.012123607 -0.069168665
0001b0 f6 95 fd bd 44 f7 d7 bc 40 02 50 3d 10 ed 56 bd
       -0.123821184 -0.026363023 0.050783396 -0.052472174
0001c0 49 ee a1 bd 68 11 a8 bb 01 91 22 3d ab 26 41 3d
       -0.079067774 -0.005129028 0.039689068 0.047156017
0001d0 f6 39 18 3c 32 fc fc 3c 96 bd c0 ba d4 1a 46 3d
       0.009291163 0.030881975 -0.0014704939 0.04836543
0001e0 e9 dd c0 bc 93 b3 06 3d 83 91 8b 3d 50 1c 32 bd
       -0.023543315 0.0328861 0.068148635 -0.043484032
0001f0 06 d6 4d 3c 5b 6b 28 3c ae fb 49 bd 1e e7 8f 3d
       0.012563234 0.010279502 -0.049312286 0.07026504
000200 6c 8b a6 3c 64 c6 a2 3d 3f 28 1b 3d 27 6f 90 3d
       0.020330153 0.07947996 0.03788018 0.070524506
000210 a1 c5 18 be a9 76 84 bd 9c 43 c3 3c 1d 72 17 3e
       -0.1491914 -0.06467945 0.02383595 0.14789625
000220 2b fe 23 3d a5 cf f5 bc 09 13 d9 bd 08 c5 91 3d
       0.040037315 -0.03000624 -0.10599334 0.07117659
000230 49 01 f3 bd 94 a4 03 3e 70 da 77 3d f3 3e a4 3b
       -0.118654795 0.1285575 0.060511053 0.005012387
000240 ee 6e a9 bd a6 1c 71 3c af c0 84 3c f9 3f a8 3d
       -0.08273111 0.014716303 0.01620516 0.08215327
000250 9a de 24 3e 29 0f d1 bd a1 2b 24 3c 2b 5b c2 bc
       0.16100541 -0.1020797 0.010020168 -0.023725113
000260 0e c6 90 3b bd a0 43 3c 5f f4 f3 bb 23 f0 41 bd
       0.004418141 0.011940178 -0.007444903 -0.047348153
000270 f4 b3 e4 3d 22 d5 e2 3d a9 fc d0 bc 4d 57 b3 bd
       0.11167136 0.11075808 -0.025511103 -0.08756886
000280 62 5e 49 3b 71 cb 00 3d 4c 26 7c bc ef 71 85 3c
       0.0030726423 0.031444017 -0.01538999 0.01628968
000290 7c 92 78 3d df d7 25 3e f1 c5 0d 3e 86 6f b0 bd
       0.060686573 0.1619563 0.1384504 -0.086150214
0002a0 a0 98 2c be 61 e7 b1 3d 0d fe c2 3c b1 71 30 3d
       -0.16855097 0.0868671 0.023802781 0.043077175
0002b0 05 2b 3c 3c 91 72 6a bd e3 85 88 3d 71 2a de 3d
       0.011484866 -0.057238165 0.06666162 0.10847939
0002c0 61 33 31 bd 94 aa 3c 3e e1 d5 00 3e 73 e2 b2 bd
       -0.04326189 0.18424445 0.12581588 -0.08734598
0002d0 39 c6 4d be 9c 0f fb 3d dc ab d8 bc f3 6a f5 bd
       -0.20095147 0.122588366 -0.026449136 -0.119832896
0002e0 f4 35 08 bd f1 a4 5b bd fe 0b 72 3e 68 d6 36 bd
       -0.03325458 -0.053624097 0.23637387 -0.044638067
0002f0 94 69 d2 3d 92 3a 06 bb 74 65 88 bd 43 86 91 bc
       0.10274044 -0.0020481688 -0.06659976 -0.017764216
000300 5e c0 fb bd f2 dd 35 be c3 b3 4a bd 66 bd cd 3d
       -0.122925505 -0.17760447 -0.04948784 0.100458905
000310 47 e4 3c 3d 6b 24 91 3d a6 28 cf 3d ac 51 ed 3d
       0.04611614 0.07087024 0.10115175 0.11587843
000320 38 d9 dc 3c 19 9e 4b bd 40 cb 1f bd f5 79 cc 3c
       0.026959047 -0.04971132 -0.039012194 0.024960497
000330 28 a9 23 3d 72 29 6e 3d 61 4e 39 3c 9d 31 de bc
       0.03995624 0.058144994 0.011310191 -0.027123267
000340 be fe 02 3e 32 a1 fa 3c 66 b8 82 bd c9 f8 01 be
       0.12792489 0.030594442 -0.063828275 -0.1269256
000350 5f 6c d8 bc ff 65 6f 3e 85 be 80 3d be 67 5f 3c
       -0.026418863 0.23378752 0.06286339 0.013635574
000360 d0 86 6a ba 79 80 b9 3d 39 6d d9 bc 74 69 d0 bd
       -0.000894648 0.09057707 -0.02654134 -0.101763636
000370 f9 dd 1e 3d d4 8f b5 bd ca 3b 41 bd 60 ce 5d bd
       0.03878591 -0.08865324 -0.04717616 -0.054151893
000380 83 93 d2 bd d2 f0 c9 bc 5e 31 a9 bc d2 02 ba bd
       -0.10282042 -0.024650965 -0.020653423 -0.09082569
000390 bd 5d 0c bd d6 cb b8 bd ab 27 6e bd 51 9a d8 3c
       -0.034269083 -0.090232536 -0.0581433 0.026440771
0003a0 e4 8f 3b bd 27 1f 95 bd dd 77 48 bb 18 60 9c bd
       -0.04579152 -0.072813325 -0.0030589022 -0.07635516
0003b0 d9 7d 3b bd f9 22 00 3e 3e f6 54 3d ba 7c 02 be
       -0.045774315 0.12513341 0.051992647 -0.12742892
0003c0 ec 80 16 be 78 fd d5 3d f9 88 1a be 4d eb 71 3e
       -0.14697617 0.10448736 -0.15091313 0.23624916
0003d0 c0 12 1e 3e a7 34 be bd 5c fe df 3d bb 9a 53 3e
       0.1543684 -0.092873864 0.10937187 0.20664494
0003e0 de 17 6a 3d 6e 7b 0f 3d 5f 1c 50 3e 2e 8b c8 3d
       0.057151668 0.03502982 0.20323323 0.097921714
0003f0 1e 64 44 3e 15 09 63 3e 9e d8 b2 3c f1 c2 24 3d
       0.19178817 0.22171433 0.021831807 0.040224973

encoder.0.bias f4 [64]
000000 4d f3 1e 3d 49 59 35 3c 75 3f 84 bd ad b4 3b 3b
       0.03880625 0.0110686505 -0.06457416 0.0028641627
000010 0a 91 29 bd 2a 04 9d bd 8f ab ce bc 61 46 ac bc
       -0.041398086 -0.0766681 -0.02522829 -0.021029653
000020 1c 6f ad bc a8 39 70 3d 2d 18 7c bc 8b d3 06 bd
       -0.021171145 0.058648735 -0.015386623 -0.032916587
000030 30 bc f6 bc 5e 19 be 3b 5b ab 78 3c e3 35 40 3d
       -0.030119032 0.005801364 0.015177573 0.04692639
000040 07 2c 06 bd 90 2f 0b bd 02 3c dc bc 1a 9a 66 3b
       -0.03275683 -0.033980906 -0.026884083 0.0035187067
000050 c5 85 7e 3c ba f6 2a 3c 81 3a d5 bb 43 63 c1 bc
       0.015534823 0.010434801 -0.0065072183 -0.023606902
000060 b7 96 ab bb b4 ff 24 bd 32 07 13 bd fb 45 cc 3c
       -0.0052364725 -0.04028292 -0.035895534 0.024935713
000070 db 04 4f 3b 6d 67 85 bc 5d 92 e7 3b 1d 11 82 bc
       0.0031588587 -0.016284669 0.0070670084 -0.0158773
000080 34 97 9b bc 60 b9 34 3c 7c 9d 28 3c 44 20 df 3b
       -0.018992998 0.011030525 0.010291453 0.0068092663
000090 97 53 4a bd 2f a9 6a 3c bb 53 9b bb 90 86 17 3d
       -0.049396124 0.014322563 -0.004740206 0.036993563
0000a0 73 44 92 bd 01 7f 28 bd 4a 04 36 bd ed 75 d2 bc
       -0.07141962 -0.041136745 -0.044437684 -0.025690997
0000b0 af 46 48 3d 0c 5a 90 3d 85 b2 78 bd 4e 68 da 3c
       0.048895534 0.07048425 -0.060717124 0.026661064
0000c0 ee 02 01 3d 92 db 4a bc 54 58 a4 bd 30 c8 63 bc
       0.031496935 -0.012381451 -0.0802466 -0.013902709
0000d0 c2 04 cd 3c 54 6c 8a 3d b5 62 40 bd a2 43 51 bd
       0.025026683 0.06758943 -0.046969134 -0.05108989
0000e0 31 24 18 bd c4 81 44 bd 24 92 88 3d 71 d2 1b bd
       -0.03714389 -0.047975317 0.06668499 -0.03804249
0000f0 7b d6 a7 bc 10 7e 8b bd a3 52 75 bd 91 64 00 ba
       -0.020488014 -0.06811154 -0.05989326 -0.0004897798

gat.att_src f4 [1, 4, 64]
000000 da 31 e9 3d e2 e6 41 be b8 71 8c be 76 54 64 be
       0.113864616 -0.18935731 -0.2743051 -0.22297844
000010 fe 7b b3 be b8 5c 9e be 24 77 0b 3d 5e 22 c2 3d
       -0.35055536 -0.30930114 0.03404917 0.09479211
000020 13 82 1b 3e 67 76 77 3e 79 b5 b0 be 7f 2c 46 be
       0.15186338 0.2416626 -0.34513453 -0.19352911
000030 b4 50 a8 3e 9c f2 06 3e 18 8b 48 3e 28 9c 4a be
       0.32874072 0.13178486 0.1958431 -0.19786131
000040 70 12 a9 be 82 02 1e bd cd ef da bd a1 8f ba 3d
       -0.3302188 -0.03857661 -0.106902696 0.09109426
000050 8c 64 15 3e 66 f1 9b 3d dd 96 97 3d 97 42 9f 3d
       0.14589137 0.076144025 0.07401822 0.07776373
000060 ef e5 7d 3e 31 8f 1b 3e 19 a9 07 3d d3 76 77 be
       0.24794744 0.15191342 0.03312025 -0.24166422
000070 8e ce aa 3e ba a0 08 3d 9d c3 a4 be b9 91 f3 bb
       0.33360714 0.033356406 -0.3218049 -0.007433143
000080 d0 6c b6 bd a2 db c5 bd 10 3e fa 3c 00 8c 52 3d
       -0.08907473 -0.09661032 0.030547172 0.051403046
000090 04 94 4d be c1 17 3e 3d 96 19 74 be f7 dc 8a 3e
       -0.20075995 0.046409372 -0.23837885 0.27121708
0000a0 e9 5d 71 be bd 4a 9a 3e 79 68 70 3e 88 2d 0c 3d
       -0.2357098 0.30135146 0.23477353 0.03422311
0000b0 11 1a f5 bc 3d 0b cf bd 3b e5 4e be 1d 3d 7d 3e
       -0.029919656 -0.101095654 -0.20204632 0.24730344
0000c0 79 e2 75 bd 76 9a 7c 3e 89 f4 23 3d df 3e 84 3e
       -0.060030434 0.24668297 0.04002813 0.25829217
0000d0 79 29 83 be fd e1 62 3e 3f 47 77 bd 0a db 4b be
       -0.2561758 0.2215652 -0.06037068 -0.19907776
0000e0 90 cd 11 3e 84 77 b0 be 16 58 a9 3d 84 0f 3b bd
       0.14238572 -0.34466183 0.08268754 -0.045669094
0000f0 3a 65 85 3e 24 ec b4 3e 9e 8e 2d be 90 4d 0e bd
       0.26053792 0.3533641 -0.16948935 -0.034741938
000100 b6 ba 03 3e c8 66 fb 3c 5c 4c 46 be 50 cd a9 be
       0.12864193 0.030688658 -0.19365066 -0.33164454
000110 8f f8 41 3d 1e 58 ba bc ff e5 99 be 11 4c dd bc
       0.047356185 -0.022747096 -0.30058286 -0.02701381
000120 d1 8a 7f 3e 15 b5 dc bd e8 95 37 bd df 60 23 3e
       0.24955298 -0.10776726 -0.044820696 0.15954922
000130 3a b6 76 3e 6d 7c 1c 3e f8 de 1e 3d f5 55 b0 be
       0.24092951 0.1528184 0.03878686 -0.3444058
000140 16 0e a0 be a4 55 77 3e 96 1f 5f be e9 3f 24 3d
       -0.31260747 0.24153763 -0.21789393 0.040100012
000150 b2 f3 0e 3e 51 9d 32 3d 7f 47 cb ba 04 9b 95 be
       0.1396015 0.04360706 -0.0015508978 -0.2921983
000160 a6 44 24 3e 48 ac 50 3d ef b5 cc 3d 5a eb 92 be
       0.16041812 0.05094555 0.099956386 -0.28695184
000170 d1 bb 91 bd 37 2e 28 3e f2 88 a3 bd fc e0 37 3e
       -0.07115901 0.1642388 -0.079851046 0.17956918
000180 ed 66 57 be 2e 33 fe bc f2 ba 16 bd d3 38 8c 3e
       -0.21035357 -0.031030264 -0.03679938 0.27387103
000190 0c e6 64 be 2b 98 51 3e 3b 5c 79 bc 62 6d e4 3d
       -0.22353381 0.20468204 -0.015219743 0.111536756
0001a0 7a 92 0e be 86 2d 5f be 5b 7a 1b be 25 0d c4 bc
       -0.13923064 -0.2179471 -0.15183394 -0.023932049
0001b0 bf ec 60 3e 79 c1 2b 3e 2d df d5 bd 82 b5 91 3e
       0.21965311 0.16773023 -0.10442958 0.28458792
0001c0 51 1f 19 3e 59 59 58 be a8 d5 9e 3e bc a7 a8 3e
       0.14953353 -0.21127833 0.31022382 0.3294047
0001d0 b3 35 94 3c 2f a2 8a bd 61 fd 55 3e 32 63 41 3e
       0.018092012 -0.06769215 0.20897438 0.18885496
0001e0 88 45 37 be 96 a1 a4 3c 77 52 40 be 3b 56 4c 3e
       -0.17897618 0.020096581 -0.18781458 0.1995477
0001f0 2e 12 06 be 11 3f 6f 3e 9f 8a 78 bd 90 ca 71 be
       -0.13092873 0.23363902 -0.060679074 -0.23612428
000200 4b a0 59 3e 88 0b b7 be d5 10 48 3e 3d 29 c1 bb
       0.21252553 -0.35750985 0.19537671 -0.0058948086
000210 23 83 48 3e 88 33 a4 3e 47 30 6b 3e b8 c4 b5 bd
       0.19581275 0.32070565 0.22967635 -0.08875412
000220 04 df e4 3d 8e a4 42 be e2 99 45 be cb 59 23 3e
       0.11175349 -0.19008085 -0.19296983 0.15952222
000230 3a 2f 0d 3e ee b9 f7 3d d3 88 12 bd 3f 1e 27 3e
       0.13787547 0.1209601 -0.035775017 0.16320132
000240 b4 f9 91 3e 9e 00 49 bd c1 cc 85 be cf 4e 93 3e
       0.2851082 -0.049072854 -0.26132777 0.28771064
000250 77 2f 48 bd 7e be 3b be 5a 1b 88 3e 6d de 2d 3e
       -0.04887339 -0.18334386 0.26583368 0.1697938
000260 57 5a 11 3e 13 ed 04 be 21 dc 69 3e b8 f0 3e be
       0.14194618 -0.12981062 0.22837879 -0.18646514
000270 b3 08 39 bd 08 35 cf 3d 16 37 28 3e 75 66 1c 3e
       -0.04517431 0.10117537 0.16427264 0.1527346
000280 8d ab 7a bc c1 1f 52 bc 0e f5 1f 3d 12 04 9a bc
       -0.01529969 -0.0128249535 0.03905206 -0.018800769
000290 4b 29 6f 3e 6f bf a5 bc 3c 33 1c be f7 7c fa bd
       0.23355596 -0.020232884 -0.1525392 -0.122308664
0002a0 52 06 aa 3d 1b ff 73 be 02 dd 70 3e dd 8b 8b be
       0.08301987 -0.23827784 0.23521808 -0.27255145
0002b0 1e 9b 97 3e 8f d9 81 3e 07 16 88 be 7f 2a 44 be
       0.29610533 0.25361297 -0.26579306 -0.19156836
0002c0 45 cb fe bd 10 01 89 be 8f 4c b6 3d 27 bf 0d be
       -0.12441114 -0.26758623 0.08901321 -0.1384245
0002d0 3f ba 22 be 8f d7 67 3d 43 f6 57 3e b8 09 9d bd
       -0.1589136 0.056602057 0.21090035 -0.07667869
0002e0 eb 81 25 3e bf 7d a6 bd e2 d5 3c 3d 38 2e 82 3e
       0.16162841 -0.08129453 0.046102412 0.25425887
0002f0 c6 85 86 be 51 df 49 be 49 4f 12 be 22 7e 9e 3e
       -0.26273936 -0.19714095 -0.14288057 0.30955607
000300 77 84 17 3e fa da 88 bd 36 f2 4d be 26 ba 82 be
       0.14796625 -0.066823915 -0.20111927 -0.25532645
000310 1c 08 93 be 2e 7b 5f 3e a5 db 41 3e 63 11 25 3d
       -0.28717124 0.21824333 0.18931444 0.040299784
000320 77 d0 cf bd 9d d1 41 be 33 4e cc bd d2 a8 14 3d
       -0.101471834 -0.18927617 -0.09975853 0.036293812
000330 76 b1 a7 3e e7 6a 2e bd 31 62 df 3d 31 37 41 3e
       0.3275258 -0.04258242 0.109074004 0.1886871
000340 08 7c ab be 2b 85 88 3e 11 0b 9c 3e 17 5e 08 3e
       -0.33493066 0.266641 0.30477193 0.13317142
000350 d1 3e 1d 3e 4d 6f 75 3e c2 a0 55 3c f0 54 8f be
       0.15355994 0.23968239 0.013038816 -0.2799449
000360 cd f7 6d 3e 93 91 9a be fe 66 82 bd 0c 70 4b 3e
       0.2323906 -0.3018919 -0.063673005 0.19866961
000370 4f 65 13 3e dc ac 4a 3e 0b 03 96 3e 21 d4 d1 3c
       0.14394115 0.19792503 0.29299197 0.025613846
000380 90 6b 3f be b5 4f 28 3d 4b a3 32 3e 81 eb d3 3d
       -0.18693376 0.04109164 0.17445104 0.10347653
000390 ac ef 44 3d 43 2f 12 be 51 4e 8e 3d d9 df af 3d
       0.04808013 -0.14275841 0.069485314 0.085876174
0003a0 c6 e3 28 bd c9 dc 7f 3e 56 dc 8c 3e 43 c5 82 be
       -0.041232847 0.24986567 0.27511853 -0.25541124
0003b0 d6 f1 20 3e 08 95 80 be d9 37 04 3e 6f 6d 4d be
       0.15717253 -0.25113702 0.12911929 -0.20061277
0003c0 23 3b 8a be d7 e3 22 3d 8d 9d da bd 32 af 3e 3e
       -0.26998243 0.039768066 -0.10674582 0.18621519
0003d0 66 16 11 3e 6a 06 a1 3e fb 0a b4 bd d0 69 01 3e
       0.141687 0.31450206 -0.08791157 0.1263802
0003e0 0a 68 8c be ad c5 85 3e de cf 11 be b6 b6 14 bd
       -0.27423126 0.26127377 -0.14239451 -0.03630706
0003f0 0f e3 8e be af c5 4e bd b2 35 8e 3e 52 30 92 3e
       -0.27907607 -0.050481495 0.2777534 0.2855249

gat.att_dst f4 [1, 4, 64]
000000 0e dc 1e be dc a8 21 3d 2e 82 dd bd 25 9a 82 be
       -0.15513632 0.039467677 -0.108158454 -0.25508228
000010 1b 4a 93 3b f8 41 4d 3e c2 e0 43 be 44 2e 83 be
       0.004494918 0.20044696 -0.19128707 -0.25621235
000020 b1 40 93 3e e7 c7 17 3e 71 08 2f 3e 14 1d 92 bc
       0.28760293 0.1482235 0.17093064 -0.017836131
000030 3c 9a 79 3d 81 19 81 3d 36 ef 47 3d 58 0a 69 3d
       0.060938105 0.063036926 0.048812114 0.05689463
000040 93 0c 83 be f6 5e 6e be b1 de 7d 3e 27 95 2a 3e
       -0.2559553 -0.23278412 0.24791981 0.1665846
000050 fe c8 82 be f4 86 5b bd 39 10 04 be 36 f2 8d be
       -0.2554397 -0.0535955 -0.12896813 -0.27723855
000060 0e 8f 73 be 07 96 e2 3d ce 97 47 be ee b0 80 bc
       -0.2378504 0.11063772 -0.19491503 -0.015709367
000070 42 33 61 be cb 71 38 3e 3d 42 06 3d 0f 10 62 3e
       -0.2199221 0.18012159 0.032778013 0.22076438
000080 3d e3 e0 bd e7 03 b7 3d e2 ea 69 be 5f 67 2f be
       -0.10980842 0.08936291 -0.22843507 -0.17129277
000090 97 ae 16 be 06 aa 66 3e 76 c2 ff 3d 69 e7 2c 3e
       -0.14715038 0.22525796 0.12488262 0.16885151
0000a0 61 03 26 be 08 03 61 be 5f ce 29 bd a1 ab 7c 3e
       -0.16212226 -0.21973813 -0.041456576 0.24674846
0000b0 7e ad d5 bb 5a 91 4a 3e 44 f3 c7 3d 42 1f c6 3c
       -0.006520926 0.1978201 0.09763196 0.024184827
0000c0 9b 2f 28 bd 33 26 63 be c9 ca f9 bc 1f e7 eb 3d
       -0.041061025 -0.2218254 -0.030492203 0.11518692
0000d0 a1 61 20 be 40 8c 79 3e f2 63 84 bd 27 7b 8b 3d
       -0.15662242 0.24369907 -0.064643756 0.06810599
0000e0 47 4d 0e 3d 67 85 ae bd 1b eb 47 3d ec 98 07 be
       0.034741666 -0.08521538 0.0488082 -0.13241929
0000f0 40 12 17 3e 68 f3 09 3e ee 10 8b 3e 06 9b b0 bd
       0.14753056 0.13471758 0.27161354 -0.086233184
000100 bc 3c 32 3e 11 69 8b bc 57 88 80 3e 54 91 98 be
       0.17405981 -0.017017873 0.2510402 -0.29798377
000110 33 1b 22 bd d0 79 82 3e ef cb e9 bc 10 53 84 3e
       -0.03957672 0.2548356 -0.028539626 0.25844622
000120 d8 fb 3e be 99 47 5a be ac 70 47 be 0c 13 a8 bd
       -0.18650758 -0.21316375 -0.19476575 -0.08206758
000130 9c 25 37 bd d4 b2 7d bd 70 68 86 be e0 df e9 3b
       -0.0447136 -0.061938122 -0.26251554 0.0071372837
000140 ef ca d5 3d bd 38 00 3e ed d5 88 be db 97 16 be
       0.10439097 0.12521644 -0.26725712 -0.14706366
000150 88 5e 89 be da 3b 4f bd 61 84 48 be 7b 57 c7 bc
       -0.26829934 -0.05059419 -0.19581749 -0.024333706
000160 81 7b 72 be 46 91 6f bd 62 86 4c 3e b0 1d 72 bd
       -0.23679926 -0.058488153 0.19973138 -0.059110343
000170 89 8e 4e be b9 6a a1 be fd b5 43 3e 21 ff 81 3e
       -0.2017156 -0.31526735 0.19112392 0.2538996
000180 d5 bc 08 3e dc 1d 16 bd cf 40 90 3e f1 cc 96 3e
       0.13353284 -0.03664957 0.28174445 0.29453233
000190 97 2b 94 be 6a a4 01 3e 33 aa eb 3d a8 29 48 bc
       -0.28939506 0.12660375 0.11507072 -0.012216963
0001a0 6d 69 d7 3d a4 35 a1 be 57 17 25 3e 91 c9 82 be
       0.10518155 -0.31486237 0.16122185 -0.25544408
0001b0 4e d0 80 3e 88 2c 68 3e 87 7d 24 3e 19 cf ab be
       0.25158924 0.22673237 0.1606351 -0.3355644
0001c0 ac 8c dc 3d b1 3a bf 3b 72 3a 83 3e da 68 9b bd
       0.107690185 0.005835854 0.25630528 -0.07588358
0001d0 10 9b d8 3d 77 80 1f be bf 8d af bd 31 9d b9 3c
       0.10576451 -0.15576349 -0.08571958 0.022657963
0001e0 98 6c 23 be 61 9d 5d 3e f4 5b 57 3d e5 ee 4b 3e
       -0.15959394 0.21642067 0.052577928 0.1991535
0001f0 79 25 00 3e 37 5a 2c 3c f6 c0 0f be 65 87 c3 3d
       0.12514295 0.010519556 -0.14038453 0.09547309
000200 bb 05 80 be 2f 91 51 3e dd 31 4f bd 1f 11 42 be
       -0.25004372 0.2046554 -0.050584663 -0.18951844
000210 77 96 a0 3d 6f 7e 81 be 51 a6 6f bd 07 df 8a 3e
       0.07841199 -0.25291774 -0.05850822 0.2712328
000220 2f 84 86 3e 47 b3 8e 3d be 60 d0 bd e3 c0 6e be
       0.26272723 0.06967788 -0.10174702 -0.23315768
000230 0c a8 50 be d7 e6 e9 3d 75 84 74 be fa 62 13 bd
       -0.20376605 0.11420982 -0.23878653 -0.035983063
000240 d2 ce 2c 3b ed 0c 00 be a9 2e 5c 3e 45 8c ee 3d
       0.0026368392 -0.12504931 0.21502174 0.11647848
000250 dc b0 1c 3e fb fc 67 3e 23 d5 39 3e 48 f6 87 bc
       0.15301841 0.22655098 0.18147711 -0.016596928
000260 42 7e e6 bd f0 e2 e6 bd 96 1d 96 bd 45 90 8e 3e
       -0.112545505 -0.11273754 -0.07329862 0.27844444
000270 cd 2e 8a 3e 0a 86 51 3e af 55 01 be 28 12 6d 3e
       0.2698883 0.20461288 -0.12630342 0.23151457
000280 9f 22 1e be 39 98 58 3e b0 4f 98 bd 41 ca 85 be
       -0.15442894 0.21151818 -0.07437074 -0.2613087
000290 c4 61 12 be d7 60 80 3e f3 bd 87 be 0b 51 b3 bd
       -0.14295107 0.25073883 -0.26512107 -0.08755692
0002a0 b5 2c 44 bd 09 b5 72 be 75 f0 cb bd 45 e1 bc bb
       -0.0478942 -0.23701872 -0.09957973 -0.005764159
0002b0 ba 60 23 3e 05 38 e2 bc ce 2e 7c bd 8a f3 93 be
       0.15954867 -0.027614603 -0.061568074 -0.28896743
0002c0 f2 04 4e bd b0 23 47 be 65 33 9c bc 41 53 66 3e
       -0.050297685 -0.19447207 -0.019067476 0.22492696
0002d0 fd fc 28 be d4 38 8d 3e 70 e4 44 3e f4 61 e6 bd
       -0.16502757 0.2758242 0.19227767 -0.11249152
0002e0 14 74 52 bd 24 b3 26 3e 15 34 84 be c5 9f 60 3e
       -0.051380232 0.16279274 -0.25820985 0.21935947
0002f0 a3 43 8e be 7e d5 db bc f2 85 7f 3e d7 63 52 be
       -0.27785978 -0.0268352 0.2495344 -0.20545898
000300 f1 6b 77 3c a9 d2 83 be b1 b4 80 3e 1a 66 85 be
       0.015101419 -0.25746658 0.25137857 -0.2605446
000310 d4 c5 24 be ed 9e 3f be 06 cc 88 3e 62 f4 8a bc
       -0.1609109 -0.18712969 0.26718158 -0.016962234
000320 ea e4 0e be 05 79 3b be ea 0f 94 3d 13 48 04 be
       -0.13954511 -0.18307884 0.07229598 -0.12918119
000330 09 5d a8 3d 3f 4a 66 be 60 a4 10 be 84 a3 90 3e
       0.0822087 -0.2248926 -0.14125204 0.28249753
000340 2e f0 9d be 37 7d 67 3e af f6 dc 3c cc 1c f0 3d
       -0.30847305 0.2260636 0.026973097 0.117242426
000350 23 f1 16 be be 4d d3 3d 19 3e 3c 3e ad 83 a8 3d
       -0.14740424 0.103175625 0.18383063 0.0822824
000360 94 bd f7 bd b5 7a 96 be 25 94 86 3e ab d3 84 3e
       -0.12096706 -0.29390493 0.262849 0.2594274
000370 9c 87 14 3d 54 b6 82 3e 4b 89 11 be d4 5c 7e be
       0.03626214 0.2552973 -0.1421253 -0.24840099
000380 e2 60 1c 3d c3 5c c3 3d d8 8f a0 bd 8e e7 1a bc
       0.038178332 0.09539177 -0.07839936 -0.009454621
000390 1b 47 8c be 85 9b 0a 3e 35 93 e3 bd f9 45 cc bc
       -0.27398 0.13535888 -0.11112062 -0.02493571
0003a0 7f c4 87 be 26 40 b8 bd a4 d3 03 3c ce 7d 72 be
       -0.26517102 -0.0899661 0.0080460645 -0.23680803
0003b0 87 c5 0e be 16 18 f5 bd 2b 87 cf bd 8e ff 94 be
       -0.13942538 -0.11967485 -0.10133203 -0.29101223
0003c0 b6 26 ae bd 58 d5 4f bb d3 17 d6 3d 37 bd 42 3d
       -0.08503477 -0.0031712856 0.10453763 0.04754373
0003d0 f4 83 11 be 44 4f 2f 3d 21 50 80 be 7e 95 46 3e
       -0.14210492 0.042800203 -0.25061134 0.19392964
0003e0 98 34 d8 bd a1 62 05 be 02 42 19 bd 80 5f 87 3d
       -0.105569065 -0.13025905 -0.037416466 0.06610012
0003f0 8f db 2d bd 08 bb 7e be b7 ea da 3d cb e4 f0 bb
       -0.042445716 -0.24876034 0.106892996 -0.007351493

gat.bias f4 [64]
000000 5e 67 0f bd 5b fc eb bc 76 fc 92 3b bb ae db bb
       -0.035010688 -0.028806856 0.004485662 -0.006704179
000010 37 90 0f bc e5 f8 cc bc 04 bd 7c bc 21 dc 5b bc
       -0.008762411 -0.025021026 -0.015425924 -0.013419182
000020 27 83 69 bd 74 91 43 3c b9 ef 97 bc de 4b 4c 3c
       -0.057009842 0.011936534 -0.018546926 0.01246926
000030 be 04 1c bd ec 75 36 3c 91 74 98 3c eb 64 3a bc
       -0.03809046 0.011136513 0.01861027 -0.0113766
000040 14 d7 37 bc 17 91 b0 bc c7 c1 55 bc 74 ce 12 bd
       -0.011220712 -0.02155356 -0.013046688 -0.03584142
000050 2b 62 08 bd 9b b1 9f bb ba 81 d4 3a 7f 2a c3 bc
       -0.033296745 -0.004873467 0.0016212978 -0.023823975
000060 40 8f e5 3b a9 75 de bc 22 99 8a 3c 05 d5 43 bc
       0.007005602 -0.027155714 0.016918723 -0.011952643
000070 27 b2 42 bc 4c 3d 1b 3c 13 ec 46 bc cc 1c 8f 3b
       -0.011883295 0.0094750635 -0.012141245 0.0043674465
000080 0a 4a 54 3c 28 fd 0d 3c 20 dc 32 3c f2 4c 77 bb
       0.012957105 0.008666314 0.01091674 -0.0037735072
000090 66 ae 0c 3c d0 6e aa 3c bb 90 2f 3c ee 92 ba bc
       0.008586502 0.020804793 0.010715659 -0.02277514
0000a0 5f dd 31 bc 05 78 6b bc 62 06 a0 bb f3 e4 05 bc
       -0.010856002 -0.014371877 -0.0048835734 -0.0081722615
0000b0 57 8d b6 3b b0 f3 bf bc c8 a8 b5 bc be 23 27 bc
       0.0055710482 -0.023431629 -0.022175208 -0.010201393
0000c0 d0 e0 67 3c 1f 79 89 3b d5 97 89 3c a1 20 69 bb
       0.014152721 0.004195347 0.016796032 -0.0035572427
0000d0 1a 6c 64 bc 25 5c 12 3b 0f 55 93 3b 9d 5b 6d bc
       -0.013941789 0.0022332754 0.0044962238 -0.014487174
0000e0 42 be cc bc 29 3d c1 bc 80 ff 38 3c aa a6 e9 bb
       -0.024993066 -0.023588734 0.011291385 -0.0071304636
0000f0 2f 4d bf bc 3b 05 f7 bc 14 00 0c bd cb 03 f0 bb
       -0.023352234 -0.030153861 -0.034179762 -0.007324671

gat.lin.weight f4 [256, 64]
000000 78 2f 18 be 2a 5e b8 bc 86 36 2b 3d 6e c1 d2 3c
       -0.14861858 -0.022505838 0.041800044 0.025727
000010 3a aa 52 3e 9e c3 f0 bd 76 77 59 bd 99 52 3d 3e
       0.20572749 -0.11756061 -0.053092442 0.1848854
000020 e8 56 4a 3d d1 b3 35 3b 10 3a d5 bd 90 73 ed bd
       0.049399287 0.0027725587 -0.10411465 -0.115943074
000030 af 8a b5 bd 36 e3 81 3d 90 15 6a bd 8f 16 ab bd
       -0.088643424 0.06342165 -0.05714947 -0.08353912
000040 64 92 c1 3d 65 59 de bc 7d 00 b1 3c ef aa b2 bd
       0.0945175 -0.027142236 0.021606678 -0.08724009
000050 c8 2b 83 bd d0 6e 92 bd f6 0b 39 be 3c 26 6c 3d
       -0.06404835 -0.07150042 -0.18070969 0.05765365
000060 50 c3 54 3c 9b 2b 1a bd ea 91 fa bd 8f 62 3f be
       0.012986019 -0.03763924 -0.12234862 -0.18689941
000070 c0 3e 3b 3c 13 ec 16 3e 2c eb b4 bd 41 e7 cf bd
       0.011428535 0.14738493 -0.08833918 -0.1015153
000080 6c b2 96 3d 5c e6 8a bc 46 67 95 3d 7e 85 ff bd
       0.0735825 -0.016955547 0.072950885 -0.124766335
000090 3b 6f 24 be 0a e8 30 be bf b9 6b bd 2f f5 12 be
       -0.16058056 -0.17276016 -0.05755019 -0.14351343
0000a0 51 7f 3c bd ca e3 6d 3b 27 39 99 3b 9a d2 82 3e
       -0.046019856 0.0036299103 0.0046760025 0.255513
0000b0 0d 02 ae 3c 2a cb 0a be 50 ff 27 bd 02 08 33 bd
       0.021241212 -0.13554063 -0.04101497 -0.04370881
0000c0 e4 eb 04 be 6a 17 66 bc 4a d1 09 3c 5a f3 e1 3d
       -0.1298061 -0.014043668 0.008411715 0.11032744
0000d0 ec d8 82 bd 43 10 98 3b f8 c7 d7 bd 1e a4 3a 3d
       -0.06389031 0.0046406104 -0.10536188 0.04556667
0000e0 aa d4 c6 3c 98 62 1a be b8 ed 16 bd 86 ad 8e bc
       0.024271328 -0.15076673 -0.0368478 -0.017416727
0000f0 bd 76 d2 bd 32 23 07 be 6b a5 e6 bc 54 ba 91 bd
       -0.10276554 -0.1319702 -0.02815505 -0.071156174
000100 37 3d 3b 3a 54 fc 9c bd 5d 8b 97 bd 73 bc 08 3d
       0.00071426056 -0.07665315 -0.07399628 0.033382844
000110 01 d6 52 bc 8f 72 84 3d 95 6f 19 3e 55 0c a1 bd
       -0.012868405 0.06467163 0.14983971 -0.0786368
000120 e7 b6 42 be 5d 58 34 3d a1 e0 08 ba 50 65 38 3c
       -0.19015084 0.044029582 -0.00052214606 0.0112546235
000130 22 a3 94 3d 05 be 0e bd 45 f0 36 bd 24 83 37 bd
       0.072576776 -0.034849185 -0.044662733 -0.0448028
000140 4a 7c d7 bd 09 45 54 be 13 5b cf bd 9b 35 11 be
       -0.10521753 -0.2072946 -0.10124793 -0.14180605
000150 28 67 45 3c ca 48 0f 3e 5e 18 4d 3d c2 76 9e bd
       0.01204852 0.1399261 0.050072066 -0.07737495
000160 ea c0 3c be 48 9f d0 3d ea 46 4a bd 4c ff a6 bd
       -0.18432966 0.101866305 -0.049384035 -0.08154163
000170 c0 ca 4b bd 97 5e 19 be 76 67 09 3e d0 dd 56 bd
       -0.049753904 -0.1497749 0.13418373 -0.05245763
000180 b4 81 01 be d6 c1 83 be 21 32 fe bd 8f ff f9 bd
       -0.12647134 -0.25733823 -0.12411905 -0.12206947
000190 c4 4f 37 3c 7d be 59 bd 54 48 92 3e f8 4c fe bd
       0.011188451 -0.05316018 0.28570807 -0.124170244
0001a0 f2 a9 fa 3b 75 ae ae bd c4 a8 d8 bd 76 09 5d 3c
       0.0076496536 -0.08529369 -0.105790645 0.013491025
0001b0 ec f6 77 bd 63 c8 13 be bc c8 9d 3d 8a f9 86 bd
       -0.060538217 -0.1443191 0.07704303 -0.065905645
0001c0 d0 99 f0 bc 0e 7f eb bd 19 fa 27 be 9c cb e8 bb
       -0.029370219 -0.11498843 -0.16403998 -0.0071043503
0001d0 9e 09 19 bd 89 61 da 3d d5 c3 9f 3d 92 33 bf bc
       -0.037362687 0.106631346 0.07801024 -0.02334002
0001e0 85 81 66 3e 14 42 8d 3e 85 0c 95 3d 33 2f e6 3d
       0.22510345 0.27589476 0.072777785 0.11239471
0001f0 0d 78 e1 bd ba 77 95 3d d5 f1 b7 3d 01 bd 0a 3e
       -0.11009226 0.07298227 0.08981673 0.13548662
000200 1f 27 26 bc 26 17 7b bd 5b 95 13 bc 10 ac 45 3d
       -0.010141163 -0.061301373 -0.009007777 0.048259795
000210 3b 38 36 be ea 00 11 3e 31 02 09 be da 7e b1 bd
       -0.17794888 0.14160505 -0.13379742 -0.08666773
000220 e0 ec d0 3d 88 24 cb 3d da 07 c1 bd 3e f1 0b 3e
       0.1020143 0.09919077 -0.09425326 0.13666245
000230 b2 12 49 3d 8f 58 67 3c c0 5e dc bd 6f cb 21 3d
       0.049090095 0.014120235 -0.1076026 0.03950065
000240 da fe e6 3d 9f 77 3a be 46 1f 14 3e 43 7f ec 3d
       0.11279078 -0.18209694 0.14465055 0.11547711
000250 ec 25 fe bd a4 a3 dd 3c cc cc 92 bd 31 a5 38 be
       -0.12409577 0.027055569 -0.07167968 -0.18031766
000260 37 fc fe 3d e6 db ad bc 41 39 4b 3e 5f 93 db bd
       0.1245045 -0.02122302 0.1984606 -0.10721468
000270 50 b3 8e bd ba 2a 68 bd 92 c7 8f bc 51 c3 28 3d
       -0.06967795 -0.056681372 -0.017551217 0.041201893
000280 de 43 fa bb db e6 85 3d 96 f3 60 bd 4b 67 a7 bd
       -0.007637485 0.06538173 -0.0549198 -0.081739984
000290 6c da 4c 3d 03 7e c1 3d be e7 f9 bd c4 b6 ed bc
       0.05001299 0.09447863 -0.122024044 -0.029017814
0002a0 80 6d b0 bc be 77 c6 bc 98 62 50 be 01 47 25 be
       -0.021536589 -0.02422702 -0.2035011 -0.16140367
0002b0 55 1a ed 3d d5 d5 f6 3c 1a f7 c2 3d 86 f6 04 3e
       0.11577288 0.03013126 0.09519787 0.12984666
0002c0 e7 c6 bf bd e5 a6 13 3e f9 dc 48 bb 85 28 2b 3d
       -0.093641095 0.14419134 -0.0030649288 0.04178669
0002d0 a8 5c f4 bc 94 35 73 3d 4a 20 87 bd 80 62 9e 3d
       -0.029829338 0.059377268 -0.065979555 0.07733631
0002e0 f1 e3 5e 3e a6 6f 5c 3e a9 1b 49 3d bf 43 9a be
       0.2176664 0.21526965 0.049098644 -0.3012981
0002f0 e4 b3 ab 3c e4 20 c3 3d ff 9b 00 3d 98 79 9a 3b
       0.020959802 0.09527758 0.03139877 0.004714202
000300 e1 38 fa bd 4f aa 9c 3c 5b a7 6c 3d 2c 81 fe 3d
       -0.1221788 0.019124178 0.05777679 0.12426981
000310 f3 6d 07 3d b0 be cf 3d 11 78 c7 3d 38 3a ab 3d
       0.03306384 0.10143793 0.09739698 0.08360714
000320 22 a7 37 3d 06 cb f4 3a 5e f0 4e bd df 55 81 bd
       0.044837125 0.0018676228 -0.0505222 -0.06315207
000330 fe 79 1b be c6 6a 96 bd 2c eb c3 bd 98 ad ca 3d
       -0.15183255 -0.07344584 -0.0956634 0.09896392
000340 4a f2 5c 3d ef 2e 80 bd 11 57 05 3d a4 6a d8 3c
       0.053942002 -0.06258952 0.032553736 0.026418038
000350 23 14 b9 3d 2e 12 be 3c 82 23 2e 3d 47 bc 83 3d
       0.09037044 0.023202028 0.04251433 0.064323954
000360 ec 06 b0 bc b8 8c 05 be 50 99 40 bd 56 dd 93 bc
       -0.021487676 -0.13041961 -0.04702121 -0.018049877
000370 b2 7c 14 3d 4c f8 b6 3d 66 a9 97 bd 17 0b 63 3d
       0.03625173 0.089340776 -0.07405357 0.055430498
000380 f1 a8 0e be 39 93 ab 3d 46 b3 e7 3d 28 dc fc 3d
       -0.13931634 0.0837769 0.113134906 0.12346679
000390 9e 0e 90 3d 6c d9 37 3d 20 f2 30 bd 46 ef a9 bd
       0.07034038 0.044885084 -0.04319966 -0.08297591
0003a0 71 46 db 3d 80 3b 5f bc a0 41 99 bd e4 a3 31 3c
       0.10706795 -0.013625026 -0.0748322 0.010842297
0003b0 cc d3 94 bd 9d a2 ed bd 91 65 26 bd be f8 5d bd
       -0.072669595 -0.11603282 -0.040624205 -0.054192297
0003c0 3c 5c bd bc 6c 2c ce bc 5d 23 7b bd 48 ec 0f bd
       -0.02311527 -0.025167666 -0.061313022 -0.035137445
0003d0 4c 67 c9 bd ad 6d 8c 3c ac e4 39 bc ae 10 af 3c
       -0.098341554 0.017142141 -0.0113460235 0.021370258
0003e0 da 2b ce bd 8c 81 93 bc d2 2f c8 bb e7 ec d9 bd
       -0.10066958 -0.018006109 -0.0061092163 -0.10640889
0003f0 34 62 2f 3d 83 9a da bd 52 d8 cf bd 76 68 b9 3d
       0.042818263 -0.10674002 -0.10148682 0.090531275

predictor.1.weight f4 [1, 64]
000000 c6 89 5c be b6 13 a3 3e 31 8f 45 bd 2e d0 ac 3c
       -0.21536931 0.31850976 -0.04823226 0.021095362
000010 3c fa 9a 3e 43 34 3d bc 66 e4 84 3e 57 71 2d 3e
       0.3026904 -0.011548105 0.25955504 0.16937767
000020 1d 0b 1b 3e 76 81 97 bd 67 a3 90 3d 76 cb e5 bd
       0.15140958 -0.073977396 0.070624165 -0.11220448
000030 8b 85 12 3f 20 cd 49 bd 9c bb ab 3e 2a 36 29 3d
       0.5723502 -0.049267888 0.33541572 0.04131142
000040 80 8e 61 3d be 19 cd 3e 95 98 db 3d 44 f8 aa 3d
       0.05506754 0.40058702 0.10722462 0.08348134
000050 5b f9 d1 bd dc f7 97 be a8 5c a4 3e 80 1d 75 3d
       -0.10252639 -0.2968129 0.3210194 0.059842587
000060 12 a3 c6 bc ab 95 c6 bc 6b ee 00 be 8f 8b 92 3c
       -0.02424768 -0.02424129 -0.12590949 0.017888812
000070 cc a4 5e 3e b1 1d 51 bd 00 e7 66 3d 30 f4 6f 3d
       0.21742553 -0.051053707 0.056372643 0.058582485
000080 0d e3 c9 bd 51 41 cb bd fa b9 46 bd 3e c9 2e be
       -0.098577596 -0.099245675 -0.048517205 -0.17068955
000090 9b 67 76 be e6 28 b6 3e 2b 5f 8e bd 29 19 ab 3d
       -0.2406296 0.35578078 -0.069517456 0.08354408
0000a0 3c e5 9f 3d f1 7c 0c be ac 07 38 3e 67 30 cb 3d
       0.07807395 -0.13719536 0.17971677 0.099213414
0000b0 35 66 a6 3e 1e ad 22 3d a5 6f 18 bd 4c ed 93 be
       0.32499853 0.03971588 -0.037215848 -0.2889198
0000c0 99 a3 bb bd d6 20 49 be 64 c4 9a be 0a 50 c8 3c
       -0.09162063 -0.19641432 -0.3022796 0.024452228
0000d0 61 b4 0d 3e bb 1f af bd ca 6d 65 bc 4a 7e 47 3e
       0.1383834 -0.08550974 -0.0140032265 0.19481769
0000e0 ed 6d 99 bd a0 a8 d5 3b f7 7e 90 bd 43 ec 80 bd
       -0.0749167 0.006520346 -0.070554666 -0.06295063
0000f0 95 21 b3 3d f3 5d b9 b9 9d e7 74 3d a1 da 0e 3e
       0.0874664 -0.00035355947 0.059791196 0.13950588
