saved_models/stockkan_model_10.pth (torch, 117908 bytes, 7 tensors)

encoder.0.weight f4 [64, 180]
0	0x3d60d51a	0.05489073
1	0x3cb7ff3c	0.022460572
2	0xbd99f501	-0.07517434
3	0xbd81cbc3	-0.063376926
4	0xbd8fc780	-0.070204735
5	0xbcae4560	-0.021273315
6	0x3c0108a5	0.007875596
7	0xbd5f2385	-0.054477233
8	0xbc9db05c	-0.019249134
9	0x3ce61496	0.028085988
10	0xbd03eba5	-0.03220715
11	0xbccca1ae	-0.024979439
12	0x3d2ffdde	0.042966716
13	0xbd3b10d9	-0.045670364
14	0xbd920edb	-0.0713174
15	0xbd835df8	-0.064144075
16	0xbd3f2adb	-0.04667173
17	0xbcf58afa	-0.029973496
18	0x3d749004	0.059707657
19	0xbd4cc70b	-0.04999451
20	0xbd37157c	-0.044698223
21	0x3c8bd49c	0.017069153
22	0x3cef4f7f	0.029212711
23	0xbd29270b	-0.041297
24	0x3d891214	0.06692901
25	0xbd1215a9	-0.035665188
26	0x3c02ae17	0.007976077
27	0x3cd6e031	0.02622995
28	0xbd90a4f1	-0.0706271
29	0xbcf53717	-0.029933495
30	0x3d418a1f	0.047250863
31	0x3d8955db	0.06705829
32	0x3d115815	0.035484392
33	0x3c8e3096	0.017357152
34	0x3d8652b4	0.06558743
35	0x3b1f336f	0.0024292131
36	0xbd35b2b6	-0.044359885
37	0xbb9a8f3e	-0.004716783
38	0xbcf3b5a6	-0.029749703
39	0xbd5ae4d0	-0.05344087
40	0xbd7cf204	-0.06175424
41	0xbc7b869f	-0.01535192
42	0xbae56c35	-0.0017503562
43	0xbd665c62	-0.056240447
44	0x3ca4e82d	0.020130241
45	0x3a9ff8a1	0.0012204834
46	0x3b464b0d	0.0030257136
47	0x3d3cb4b7	0.04607078
48	0x3d8bc7b7	0.06825202
49	0xbcb1b259	-0.021691488
50	0x3c255f68	0.010093547
51	0x3cb69110	0.022285968
52	0xbc8c14ba	-0.017099727
53	0x3c1a703a	0.009426171
54	0xbcd4cc4d	-0.025976324
55	0xbcf4de46	-0.029891144
56	0x3d241739	0.04006121
57	0x3b85de7a	0.004085359
58	0xbd946b09	-0.07246978
59	0xbd82e8e0	-0.06392074
60	0x3c037935	0.0080245035
61	0xbd80adc2	-0.06283142
62	0xbd494613	-0.049139094
63	0xbd5e9f61	-0.054351214
64	0xbcf2fa5d	-0.029660398
65	0xbd838988	-0.064227164
66	0xbd02a304	-0.031893745
67	0xbd55df55	-0.05221494
68	0xbd6a7440	-0.05723977
69	0xbd66147c	-0.05617188
70	0xbcaaa018	-0.020828292
71	0xbd3d7420	-0.046253324
72	0x3cf12df4	0.029440857
73	0x3c42a830	0.011880919
74	0x3d71ef6b	0.059066217
75	0x38971b7b	7.20536e-05
76	0xbd797aa2	-0.060907967
77	0xbd68b4a3	-0.056812894
78	0xbd5e94af	-0.054341014
79	0x3d7c0999	0.06153259
80	0x3caf8e3c	0.021430127
81	0xbca73b19	-0.020413922
82	0xbcdd840c	-0.027040504
83	0xbd575301	-0.052569393
84	0xbc095402	-0.008381845
85	0xbd88432e	-0.066534385
86	0x3cfec0e6	0.03109784
87	0x3c7d9ec2	0.015479745
88	0xbc3ea327	-0.011635578
89	0x3d3e3cd1	0.046444718
90	0x3d042916	0.032265745
91	0xbcfa5d08	-0.030561939
92	0x3d3c723c	0.04600738
93	0xbc022ada	-0.007944787
94	0xbb9ce740	-0.0047883093
95	0xbd7657cd	-0.060142327
96	0x3d659c9b	0.056057554
97	0x3c83f531	0.016108127
98	0xbb6d94a8	-0.0036251936
99	0xbd6768a2	-0.05649627
100	0xbd33db6a	-0.04391042
101	0x3d4a5e77	0.049406495
102	0xbcb55594	-0.022135533
103	0x3cbd67dc	0.023120813
104	0xbd5f0a49	-0.054453168
105	0xbcc660cd	-0.02421608
106	0xbd75e902	-0.060036667
107	0xbd1f7f6a	-0.03893987
108	0x3d14ba3e	0.036310427
109	0x3d45917e	0.048234455
110	0x3d834b6e	0.064108714
111	0x3d2eb075	0.04264875
112	0x3c7a5b19	0.015280508
113	0x3b95262e	0.0045516705
114	0xbce9e2a9	-0.028550463
115	0xbd3f3a18	-0.046686262
116	0xbcd5b853	-0.02608887
117	0xbca6cf25	-0.020362446
118	0xbd852dde	-0.06502889
119	0xbd6e9e57	-0.058256473
120	0xb9f83424	-0.00047341094
121	0x3d56c76c	0.052436277
122	0x3cb2746e	0.021784034
123	0x3ccb1c08	0.02479364
124	0xbc511487	-0.012761242
125	0x3d3cb145	0.046067495
126	0xbd87885b	-0.066178046
127	0xbc8c80a5	-0.017151186
128	0x3c355860	0.0110684335
129	0x3aef85d4	0.0018274137
130	0x3d278c4e	0.04090529
131	0xbd23bb5a	-0.039973594
132	0x3ca5bc9c	0.020231538
133	0x3d7becdf	0.061505195
134	0xbd2b66c1	-0.04184604
135	0x3d1f4dc1	0.03889251
136	0xbd101831	-0.03517932
137	0xbcaa05e5	-0.020754764
138	0xbd2a99e5	-0.04165067
139	0xbca35b7b	-0.019941082
140	0xbd5f3ecd	-0.05450325
141	0xbd28f690	-0.041250765
142	0x3d3968fa	0.04526613
143	0x3d83e750	0.06440604
144	0x3a88217e	0.0010385958
145	0x3c9e4e9d	0.019324595
146	0x3d02b1cf	0.031907853
147	0x3d2b4dd5	0.041822273
148	0x3d923537	0.07139056
149	0x3d8ac607	0.06776052
150	0x3d6edd0a	0.058316268
151	0x3d58c4ed	0.052922178
152	0x3c750869	0.014955618
153	0x3d3f2660	0.046667457
154	0xbcffc15c	-0.03122013
155	0xbbafc60f	-0.0053641866
156	0x3d788f87	0.060683753
157	0x3d48cd2c	0.049023792
158	0x3ce9b18c	0.028527044
159	0xbd6b92cf	-0.057513054
160	0xbcb4a34b	-0.02205052
161	0x3c715c2e	0.01473145
162	0x3d5af87b	0.053459626
163	0x3d19eb03	0.03757764
164	0xbd9a7134	-0.07541123
165	0xbd5e99cc	-0.05434589
166	0xbcc74e90	-0.024329454
167	0xbd707bf8	-0.058711976
168	0x3b1cf1f1	0.002394792
169	0xbc9ec8d4	-0.019382872
170	0xbc27baea	-0.010237435
171	0xbd7e269e	-0.062048547
172	0xbca125a0	-0.019671261
173	0x3d1c46fe	0.03815364
174	0xbcd410e0	-0.025886953
175	0xbd88145f	-0.066445105
176	0x3d1c9f7d	0.038238037
177	0xbd8f2040	-0.06988573
178	0x3d0c8374	0.03430505
179	0xbd61b3d7	-0.05510315
180	0xbe80d1b0	-0.2515998
181	0xbea3d3d5	-0.31997553
182	0xbd98355f	-0.07432055
183	0x3d99afc7	0.0750423
184	0xbe67565e	-0.2259154
185	0x3bc844b5	0.006111706
186	0xbc02146d	-0.00793944
187	0xbde36ba4	-0.11104515
188	0x3c9e56a2	0.01932842
189	0xbe91453c	-0.28373134
190	0xbe430403	-0.19044499
191	0x3c8c2330	0.017106622
192	0x3dc08bf1	0.09401692
193	0xbe0234c6	-0.12715444
194	0xbd11918b	-0.03553919
195	0xbe578173	-0.21045475
196	0xbdfd1066	-0.123566434
197	0xbd941dcd	-0.072322465
198	0xbd0f989f	-0.03505766
199	0xbe3d5fb8	-0.18493545
200	0x3b2f42a2	0.0026742597
201	0x3d5c7b92	0.053828783
202	0xbe5b832e	-0.2143676
203	0xbdbbbb67	-0.091666035
204	0x3e5b43b9	0.21412553
205	0x3d1a070b	0.037604373
206	0xbd890b93	-0.06691661
207	0xbd5cf295	-0.05394228
208	0x3d815419	0.063148685
209	0xbd8ea45d	-0.069649436
210	0xbd03d320	-0.032183766
211	0x3d72af9e	0.059249513
212	0xbd19fae1	-0.037592772
213	0xbd03c1db	-0.032167297
214	0x3e049d25	0.12950571
215	0xbdbe70cd	-0.09298859
216	0x3bec6ecb	0.007215356
217	0x3d7d9452	0.061909027
218	0xbd091ed1	-0.033476654
219	0xbe20d3b0	-0.15705752
220	0xbde5fa47	-0.11229377
221	0xbd1940bf	-0.037415262
222	0x3e121eed	0.1426961
223	0x3d4224cb	0.04739837
224	0x3c8d25c9	0.017229931
225	0x3e08067f	0.13283728
226	0x3d96d67a	0.07365127
227	0xbc6510cc	-0.0139810555
228	0xbe49771a	-0.1967434
229	0x3d39005e	0.045166366
230	0x3d0d7615	0.03453644
231	0xbcf5e14a	-0.030014653
232	0x3be63110	0.0070248917
233	0x3d14ec04	0.036357895
234	0xbe70ebf1	-0.23527505
235	0x3d1b30a4	0.037888184
236	0x3c1dd8ed	0.009634239
237	0x3d113273	0.035448503
238	0xbd7c0412	-0.06152732
239	0xbc6a5d61	-0.01430449
240	0xbbb36793	-0.0054749935
241	0xbdd9abcb	-0.1062847
242	0xbd36be0b	-0.044614833
243	0x3e1e3c49	0.15452684
244	0x3d51218c	0.051057383
245	0x3c81ae91	0.01583031
246	0xbba7c65b	-0.0051200814
247	0xbd5e28e7	-0.054238226
248	0x3dab7be7	0.08373242
249	0xbe3c1851	-0.18368651
250	0x3d3040d7	0.043030586
251	0x3d5539b8	0.052056998
252	0xbd7aeb8f	-0.061259802
253	0xbda3ee67	-0.08004456
254	0x3d4dfe1d	0.05029117
255	0x3e86c8ef	0.26325175

encoder.0.bias f4 [64]
0	0xbd401500	-0.046895027
1	0xbc4f8c7a	-0.01266777
2	0xbb9d09e6	-0.0047924398
3	0x3b217af9	0.0024639948
4	0xbc9b47ec	-0.018955193
5	0xbbfdadd1	-0.007741668
6	0x3d9019b3	0.07036152
7	0xbce2e851	-0.027698668
8	0xbd3c0160	-0.04589975
9	0xbd8a2b38	-0.067465246
10	0x3d176e17	0.036970224
11	0xba3730fb	-0.00069881947
12	0xbce017fd	-0.027355189
13	0x3d5ba79e	0.05362665
14	0xbd385ad2	-0.045008488
15	0xbc23d86e	-0.010000331
16	0x3d9ed174	0.07754794
17	0xbc5f718d	-0.013637912
18	0xbd739623	-0.059469353
19	0x3af26f6f	0.0018496345
20	0xbd2d59b4	-0.042321876
21	0xbd3d1112	-0.046158858
22	0x3b8d22b0	0.0043071136
23	0x3c54328d	0.012951505
24	0x3b6ea1d3	0.0036412373
25	0xbd39d255	-0.045366604
26	0x3c0cfc49	0.008605071
27	0x3cb6266e	0.022235122
28	0xbd2c8b29	-0.0421249
29	0xbceb84d3	-0.028749859
30	0x3c7bbad6	0.015364369
31	0x3d00b880	0.031425953
32	0xbcd821a1	-0.026383223
33	0xbd031456	-0.032001816
34	0xbcb29589	-0.02179982
35	0xbcfb6c6e	-0.030691352
36	0x3d56090a	0.052254714
37	0xbceb7f30	-0.028747171
38	0x3cbc3979	0.022976624
39	0xbcd470c2	-0.025932673
40	0xbd85cd06	-0.06533246
41	0xbb266e5f	-0.0025395376
42	0x3cae7aa1	0.021298708
43	0xbc77cc85	-0.015124445
44	0xbd132821	-0.03592694
45	0x3d185c0e	0.037197165
46	0xbc96766b	-0.018367013
47	0x3cead0c6	0.028664004
48	0x3cf01403	0.029306417
49	0xbd19552b	-0.037434738
50	0xbd4788f4	-0.048714593
51	0xbd22297d	-0.039590348
52	0xbc96b8bf	-0.01839864
53	0xbc89a88d	-0.016804004
54	0xbd61e0f8	-0.055146188
55	0xbd08cb4c	-0.033397004
56	0x3cfea853	0.031086123
57	0xbd76c190	-0.06024319
58	0x3c8ec0ad	0.01742586
59	0xbcd4e3c4	-0.025987513
60	0xbd1a0206	-0.037599586
61	0xbd8a3c40	-0.06749773
62	0x3ca876c0	0.020564437
63	0xbc1e7484	-0.009671334

gat.att_src f4 [1, 4, 64]
0	0x3e92566d	0.28581563
1	0xbe83521f	-0.2564859
2	0x3e702801	0.2345276
3	0x3cdfdb27	0.02732618
4	0x3abcb182	0.0014396163
5	0xbdd6a5a1	-0.1048081
6	0x3e06e49b	0.13173144
7	0x3e258486	0.16163835
8	0x3e32eb61	0.17472602
9	0xbe8be698	-0.27324367
10	0x3db64529	0.0889991
11	0x3e8e74ff	0.27823636
12	0x3e879dd2	0.26487595
13	0xbe383f90	-0.17992997
14	0xbd82c7a4	-0.06385735
15	0xbe8bb04a	-0.27282935
16	0x3d7b0866	0.061287306
17	0x3e8b72b7	0.27235958
18	0x3bf6bb96	0.007529686
19	0x3e07d963	0.1326652
20	0x3de83f56	0.11340205
21	0x3e34739a	0.17622223
22	0xbbc3c5cc	-0.005974507
23	0xbda92adf	-0.0826013
24	0xbe5e7101	-0.21722795
25	0x3e77a6dd	0.24184747
26	0xbdc90451	-0.098152764
27	0xbcecf8a8	-0.028927162
28	0x3e1fee07	0.15618144
29	0x3e441b70	0.19151092
30	0xbe9d0efc	-0.30675495
31	0x3d286e15	0.041120607
32	0x3eb5650a	0.3542865
33	0xbdce5a27	-0.10075789
34	0x3e3436df	0.17599057
35	0xbe1da4c0	-0.15394878
36	0x3d983e2d	0.07433734
37	0xbde0c751	-0.109755166
38	0x3e1a8c16	0.15092501
39	0xbe6af49f	-0.22944878
40	0xbe7fd189	-0.24982275
41	0x3e178b28	0.14799178
42	0xbe305c95	-0.17222817
43	0x3e228062	0.15869287
44	0xbdfba30a	-0.122869566
45	0xbe2b76c3	-0.16744523
46	0x3e3b3e5a	0.18285504
47	0x3db96d8f	0.090541
48	0xbd68f688	-0.056875736
49	0x3e97fd72	0.2968555
50	0x3e9737f3	0.29534873
51	0x3e8f6d11	0.280129
52	0x3e5ca190	0.21546006
53	0x3c66789d	0.014066842
54	0xbcfdd930	-0.030987352
55	0xbb1a3511	-0.0023530165
56	0x3def5b05	0.116872825
57	0x3d8b828e	0.06812011
58	0x3d23988d	0.039940406
59	0x3e21ddde	0.15807292
60	0xbe4cecf8	-0.20012271
61	0x3e8e21fd	0.27760306
62	0x3db6ce62	0.08926083
63	0x3dc6ea50	0.0971266
64	0xbd823c70	-0.06359184
65	0x3cbe3284	0.023217447
66	0xbe5329fc	-0.20621485
67	0x3e369a41	0.1783228
68	0xbdb2a796	-0.08723371
69	0xbbf58aec	-0.0074933674
70	0x3e399295	0.18122323
71	0xbe16d520	-0.14729738
72	0x3eac2d73	0.33628425
73	0xbe818f8e	-0.25304836
74	0x3e7ba154	0.2457326
75	0xbe06bf3f	-0.13158892
76	0x3e8b97f1	0.2726436
77	0x3da558e5	0.08073596
78	0x3e9fcc41	0.3121052
79	0x3ddf3270	0.10898292
80	0x3cbc9421	0.023019852
81	0x3e5cf2ee	0.21577045
82	0xbe3d28cd	-0.18472596
83	0x3e78deae	0.24303696
84	0xbe388fba	-0.18023577
85	0xbe3b9b62	-0.18320993
86	0xbe429c8b	-0.19005029
87	0x3ca06e68	0.019583896
88	0x3ea5df57	0.32396957
89	0xbe845347	-0.25844786
90	0xbdb04f9b	-0.086089335
91	0x3e3cd590	0.18440843
92	0x3cb8b7cc	0.022548579
93	0xbd30b459	-0.043140743
94	0x3e359279	0.17731656
95	0xbdf56d15	-0.11983696
96	0x3db47211	0.08810819
97	0xbe086980	-0.13321495
98	0x3e42533c	0.18977064
99	0x3e853fb2	0.26025158
100	0xbd3d4827	-0.046211388
101	0x3cd58f2a	0.026069243
102	0x3d90de7d	0.07073686
103	0x3df9b949	0.121935435
104	0xbd98aef2	-0.07455243
105	0xbe7dae91	-0.24773623
106	0xbe84c27e	-0.25929636
107	0xbceca059	-0.028885053
108	0x3e95b911	0.29242757
109	0xbdcb2ac5	-0.09920267
110	0xbe9315ce	-0.28727573
111	0xbdd1ee8d	-0.10250578
112	0xbc2bdebb	-0.010490115
113	0x3d9da98a	0.07698353
114	0xbe6c4978	-0.23074901
115	0xbda47a39	-0.080311246
116	0xbe246840	-0.16055393
117	0xbe573a2a	-0.21018282
118	0x3c8fca27	0.017552448
119	0x3e38231b	0.17982142
120	0x3dde6c56	0.10860507
121	0xbe6152f2	-0.22004297
122	0xbc2fdc28	-0.010733642
123	0xbe1e4af8	-0.15458286
124	0xbd81d5e9	-0.06339628
125	0x3d8880bf	0.06665181
126	0x3e9c7d97	0.30564567
127	0xbd9c2545	-0.07624296
128	0x3e16018b	0.14649026
129	0x3e809976	0.2511708
130	0x3e637692	0.222132
131	0x3d931a0f	0.07182705
132	0x3da9839b	0.08277055
133	0xbcd58352	-0.026063595
134	0x3e1722a0	0.14759302
135	0x3e083da9	0.13304771
136	0xbe25be00	-0.1618576
137	0x3c90b263	0.017663186
138	0x3de8bf43	0.11364605
139	0xba075983	-0.00051631796
140	0x3d3891d6	0.045060955
141	0x3e2593fc	0.16169733
142	0xbddcebbb	-0.107871495
143	0xbe25d61c	-0.16194957
144	0x3c4f7bfb	0.012663837
145	0xbe701191	-0.23444201
146	0xbe0d43bd	-0.13795371
147	0x3e7cf392	0.2470229
148	0xbe3dbec4	-0.18529803
149	0xbe74de7a	-0.23912993
150	0xbd83c33c	-0.064337224
151	0x3d513a68	0.05108109
152	0xbe312e89	-0.17302908
153	0xbe6c2d33	-0.23064117
154	0x3e115ff0	0.14196754
155	0x3ddcf63b	0.10789152
156	0x3e4bff3a	0.1992158
157	0xbe1c5262	-0.15265802
158	0xbe1cf20b	-0.15326707
159	0x3d6330e6	0.055466555
160	0xbe16ca8a	-0.147257
161	0xbe922c35	-0.28549352
162	0xbccb778b	-0.024837276
163	0xbe473b30	-0.19456172
164	0x3d5d51e3	0.05403317
165	0x3e5a358b	0.21309488
166	0x3e9b1703	0.30290994
167	0x3d43bf17	0.04778966
168	0x3e953492	0.2914167
169	0x3e19861f	0.1499257
170	0x3e0a069f	0.13479088
171	0x3e34af66	0.17645034
172	0x3e95795f	0.2919416
173	0xbda1c56b	-0.078989826
174	0xbe52e1eb	-0.20593993
175	0xbe6f1d1d	-0.2335095
176	0xbe0949f5	-0.13407119
177	0x3ca6a1f2	0.020340893
178	0xbe4ec3e9	-0.20191921
179	0x3def31e7	0.1167944
180	0xbded5863	-0.11589124
181	0x3de1e44e	0.11029874
182	0xbe8527c4	-0.260069
183	0x3d8a5c67	0.067559056
184	0xbe1e6828	-0.1546942
185	0x3d5ecbdd	0.054393638
186	0x3da3d8b7	0.080003195
187	0xb9969699	-0.00028722433
188	0xbd443279	-0.047899697
189	0x3e780c36	0.24223408
190	0xbe7d244f	-0.24720882
191	0xbc84eee4	-0.016227193
192	0xbe7e0690	-0.24807191
193	0x3bd6f196	0.006559561
194	0x3d95c57b	0.07313057
195	0x3e16c87c	0.14724916
196	0xbd0e1a0b	-0.034692805
197	0x3ca3d584	0.019999273
198	0x3e8efa35	0.27925268
199	0xbe7d79fc	-0.24753565
200	0x3da9b126	0.082857415
201	0x3cb5fee7	0.022216273
202	0x3c4072e9	0.011746147
203	0x3e455cb0	0.19273639
204	0xbde79790	-0.11308205
205	0x3eb1a744	0.34697926
206	0x3e155b04	0.14585501
207	0xbd290fe7	-0.04127493
208	0xbe40fbed	-0.18846102
209	0x3ea5012a	0.3222745
210	0x3e312ab2	0.17301443
211	0x3b501a68	0.003175402
212	0x3db0ed70	0.086390376
213	0x3ea33be9	0.31881645
214	0x3d0d3a69	0.034479532
215	0xbe731324	-0.2373777
216	0xbd2b259b	-0.04178391
217	0xbe8e5a48	-0.27803254
218	0x3e8be3ed	0.2732233
219	0x3d559892	0.052147456
220	0xbde39212	-0.11111845
221	0x3d11f7df	0.03563678
222	0xbe2dbace	-0.16965792
223	0x3e6e7d4e	0.23289987
224	0x3e763656	0.24044165
225	0x3d2b2dfb	0.041791897
226	0xbe26fe89	-0.16308035
227	0xbe509589	-0.20369543
228	0x3e4d3f1e	0.20043609
229	0xbd8c335d	-0.06845734
230	0x3eb1db2d	0.3473753
231	0x3b36b577	0.0027879158
232	0x3d176ea8	0.036970764
233	0xbe96946b	-0.2941011
234	0x3e791b37	0.24326788
235	0xbdf94d51	-0.1217295
236	0x3d91bf7a	0.071165994
237	0xbca10118	-0.019653842
238	0x3db585c1	0.08863402
239	0x3e1b4282	0.1516209
240	0x3e8badab	0.27280936
241	0xbe4e15eb	-0.20125549
242	0xbe61194b	-0.21982305
243	0x3e3d5486	0.18489274
244	0xbe7b8901	-0.24563982
245	0x3d7adaf2	0.06124396
246	0x3e4e7ce9	0.20164837
247	0xbe0c0fb6	-0.13677868
248	0x3cf21769	0.029552178
249	0x3e1d39d7	0.15354095
250	0x3d674c9e	0.056469552
251	0x3e65b6f3	0.22433071
252	0x3d0dfe3c	0.034666285
253	0x3e836757	0.2566478
254	0x3e9a8338	0.30178237
255	0xbe287546	-0.16450986

gat.att_dst f4 [1, 4, 64]
0	0xbe460da4	-0.19341141
1	0x3d62c0d1	0.055359665
2	0x3c1404d6	0.009034356
3	0xbe814b94	-0.25252974
4	0xbdba8fc9	-0.09109456
5	0xbc900af8	-0.017583355
6	0x3d456265	0.04818954
7	0x3d9628e0	0.07332015
8	0x3e98791d	0.29779902
9	0x3d3f97cc	0.046775624
10	0xbe17567d	-0.14779086
11	0xbe572be2	-0.21012834
12	0x3de6a660	0.11262202
13	0xbe7e2399	-0.24818267
14	0x3e42a5f0	0.19008613
15	0x3d08479e	0.033271424
16	0xbe3daf2d	-0.18523856
17	0xbda11fc7	-0.07867389
18	0x3e9097e2	0.28240877
19	0x3d1ace9b	0.03779469
20	0xbe2e5dd0	-0.17027974
21	0xbdc197a1	-0.09452749
22	0xbd792ac8	-0.060831815
23	0x3e1faa64	0.15592343
24	0xbc1f0148	-0.009704895
25	0x3e5c0e4a	0.21489826
26	0x3e7f4ab1	0.24930836
27	0xbe8a0a79	-0.26961115
28	0x3e871628	0.2638409
29	0xbe66803e	-0.22509858
30	0xbe67e412	-0.22645596
31	0x3d65c1d8	0.056093067
32	0x3e008016	0.12548861
33	0xbe9997ec	-0.2999872
34	0x3e83761c	0.25676048
35	0xbd5d0456	-0.053959213
36	0x3e1a6890	0.1507895
37	0x3dccd426	0.100014016
38	0x3da700d8	0.08154458
39	0x3e7ddbf7	0.24790941
40	0x3e4b4f20	0.19854403
41	0xbe981719	-0.29705122
42	0x3d873793	0.06602397
43	0x3e41b2fd	0.18915935
44	0x3e49bcf0	0.1970098
45	0xbe8f73ef	-0.28018138
46	0xbc492108	-0.012275942
47	0x3e477cc8	0.19481194
48	0xbe7f4ceb	-0.24931686
49	0xbe8cfad4	-0.27535117
50	0x3d255a71	0.040369455
51	0xbe2c5dd7	-0.16832672
52	0x3d60a74f	0.054847058
53	0x3b8036a7	0.003912765
54	0xbe1c8692	-0.1528571
55	0xbdd3ff67	-0.103514485
56	0xbe18fa35	-0.14939196
57	0x3e7d0849	0.24710192
58	0xbe60ffae	-0.21972534
59	0xbdd849b7	-0.10560935
60	0xbe49c029	-0.1970221
61	0xbe6e4ce8	-0.23271525
62	0xbc9d10dc	-0.019173078
63	0x3e1a6d35	0.15080722
64	0x3e1b7cd4	0.15184337
65	0xbe2657af	-0.16244386
66	0x3e22b277	0.15888391
67	0x3e724676	0.23659691
68	0xbe29fd8a	-0.16600624
69	0xbe583a2c	-0.21115941
70	0x3dc2d095	0.0951244
71	0xbe69fcf3	-0.22850399
72	0x3e4c1c07	0.19932567
73	0xbddea98c	-0.10872182
74	0xbd8b5b9e	-0.06804584
75	0x3d5184ab	0.051151913
76	0x3d495012	0.049148627
77	0xbe056446	-0.13026533
78	0x3e940e10	0.2891698
79	0xbe322e28	-0.1740042
80	0x3c33b61c	0.010968711
81	0xbe610e5e	-0.21978137
82	0x3e5c87b8	0.21536148
83	0x3e616d0c	0.22014254
84	0xbe8986a0	-0.26860523
85	0xbd3999d5	-0.04531272
86	0x3e7b91ad	0.2456729
87	0xbe00a40d	-0.1256258
88	0xbbde7b17	-0.006789576
89	0x3e0e6e65	0.139093
90	0x3dc77e1d	0.09740851
91	0x3e869738	0.26287246
92	0x3d69e904	0.057106987
93	0xbd410066	-0.04711952
94	0xbe5e2e21	-0.21697284
95	0xbde89bd8	-0.1135785
96	0x3dfa7b20	0.122305155
97	0xbe94f8a4	-0.29095948
98	0x3e04b507	0.12959681
99	0x3e7144ec	0.23561448
100	0x3c9ddbf9	0.01926993
101	0xbe46f1a6	-0.19428119
102	0x3e16a047	0.14709578
103	0x3e25eb05	0.16202934
104	0x3e77de17	0.24205814
105	0x3da9b369	0.08286173
106	0x3e3e8321	0.18604709
107	0x3d076b55	0.033061344
108	0x3e8e8c31	0.27841333
109	0xbe6256d6	-0.22103438
110	0xbe98f137	-0.29871532
111	0xbdb8fe1a	-0.09032841
112	0x3de6d656	0.1127135
113	0x3d8ddf2f	0.069273345
114	0xbe8564b4	-0.26053393
115	0x3e440877	0.19143854
116	0x3e5bf49b	0.21480028
117	0x3e2b70dd	0.16742273
118	0xbe124f1a	-0.14287987
119	0x3e0b6be0	0.1361537
120	0xbe5436d3	-0.20724039
121	0x3e6bb3e9	0.23017849
122	0xbe09fbf6	-0.13475022
123	0x3e24c556	0.16090903
124	0xbe4e60ea	-0.20154157
125	0xbe0413c8	-0.12898171
126	0xbe95fbeb	-0.2929376
127	0x3e0dc271	0.13843705
128	0xbe9661ff	-0.2937164
129	0x3baefe8e	0.005340404
130	0x3e82624d	0.25465623
131	0xbe480b28	-0.19535506
132	0xbd31ec96	-0.043438517
133	0x3e20b2a1	0.15693142
134	0xbd980b1f	-0.07423996
135	0xbe8004cf	-0.2500367
136	0xbc221867	-0.009893513
137	0x3d8bd15d	0.06827042
138	0xbc826f50	-0.015922219
139	0x3e487864	0.19577175
140	0x3e72fe26	0.23729762
141	0xbe9a1fb8	-0.30102324
142	0x3e8a85ce	0.2705521
143	0xbc9fdf5b	-0.019515684
144	0x3e98cdbb	0.2984446
145	0x3cbb25cd	0.022845173
146	0xbe051536	-0.12996373
147	0xbe8fcc21	-0.28085425
148	0x3dc68ea6	0.09695177
149	0x3e8f8728	0.28032804
150	0xbe755d16	-0.2396129
151	0xbe338d5a	-0.1753439
152	0xbe975891	-0.29559758
153	0x3e9204e1	0.28519347
154	0x3e278b5f	0.1636176
155	0xbd0bca7d	-0.034128655
156	0xbe4f45e7	-0.2024151
157	0xbe5a7d26	-0.21336803
158	0xbe9422c4	-0.28932774
159	0xbe5304a0	-0.20607233
160	0xbb8bd2ca	-0.0042670714
161	0xbe43f6a5	-0.19137056
162	0x3e1cbf26	0.15307292
163	0x3de33733	0.11094513
164	0x3d78b678	0.06072089
165	0xbc3050d0	-0.010761455
166	0xbe8e7d94	-0.27830184
167	0x3cc7ce11	0.024390252
168	0x3e9e2598	0.30888057
169	0xbd201b25	-0.039088387
170	0x3e94ebad	0.29086056
171	0x3e48d5e2	0.1961284
172	0xbe20a6a1	-0.15688564
173	0x3d9b811e	0.075929865
174	0xbdffebb9	-0.124961324
175	0xbe293839	-0.16525353
176	0xbe21dfce	-0.15808031
177	0x3e117de8	0.14208186
178	0xbd981a67	-0.07426911
179	0x3def3132	0.11679305
180	0x3bee3249	0.007269178
181	0x3daf0f1c	0.08547804
182	0xbe948abf	-0.29012105
183	0xbe846416	-0.2585761
184	0xbe30a82c	-0.17251652
185	0xbccf2c47	-0.025289668
186	0x3d76eaa5	0.06028237
187	0xbe440c19	-0.1914524
188	0x3d932ac4	0.07185891
189	0xbd1f237e	-0.038852207
190	0x3da39ddf	0.07989096
191	0x3df749f7	0.120746545
192	0xbdb8d3a9	-0.09024746
193	0xbdf588f2	-0.11989011
194	0xbe5d90ec	-0.21637315
195	0x3e954ffe	0.29162592
196	0xbe93bf2d	-0.28856793
197	0xbda5eaf5	-0.08101455
198	0xbe1b9539	-0.15193643
199	0xbd59ae36	-0.053144656
200	0xbdc2fb30	-0.095205665
201	0x3d8d563e	0.06901215
202	0xbd09ee3a	-0.033674456
203	0xbda75bf9	-0.08171839
204	0xbe8c19d2	-0.2736345
205	0x3ea3ddfe	0.32005304
206	0xbe11fb2a	-0.14255968
207	0xbe19872c	-0.1499297
208	0x3e8bf0e6	0.27332228
209	0x3cdb471f	0.026767312
210	0xbe2bbc91	-0.16771151
211	0xbd99cee4	-0.075101644
212	0x3d95dd1d	0.07317565
213	0xbd4233b1	-0.047412578
214	0x3e95186d	0.29120198
215	0xbe8740cb	-0.2641662
216	0xbe35db9f	-0.1775956
217	0xbca81410	-0.020517379
218	0xbe787686	-0.24263963
219	0xbdc7ef94	-0.09762493
220	0x3dbb1d88	0.09136492
221	0x3e802035	0.25024572
222	0xbdcd5fd1	-0.10028041
223	0xbe08e380	-0.13368034
224	0x3dbd89c1	0.0925479
225	0xbe806ebc	-0.25084484
226	0xbe0f21f2	-0.13977793
227	0xbe63a15b	-0.22229521
228	0x3e95d34c	0.2926277
229	0xbe0e3ffe	-0.13891599
230	0xbd4cabb2	-0.04996843
231	0xbe87b241	-0.26503184
232	0xbe1ce593	-0.1532195
233	0x3e0a233d	0.13490005
234	0xbe35e223	-0.17762046
235	0xbdcf23d8	-0.101142585
236	0x3e922992	0.2854734
237	0x3e89b18f	0.2689328
238	0x3ddb3ea2	0.10705306
239	0xbe760ad2	-0.24027565
240	0xbd15cb6d	-0.036570955
241	0xbda25a85	-0.079274215
242	0x3cb66ffe	0.022270199
243	0xbd489ec9	-0.048979554
244	0x3cbaf2b4	0.022820808
245	0xbe63f2b9	-0.2226056
246	0xbe69bfc0	-0.22827053
247	0xbe2c81c2	-0.16846374
248	0xbac9c555	-0.0015393893
249	0x3e92fb89	0.2870753
250	0x3e6e7191	0.2328551
251	0xbdf7839c	-0.12085649
252	0x3e65da2e	0.2244651
253	0x3d9606e3	0.07325532
254	0x3e5eb14a	0.21747318
255	0xbe1ccdbe	-0.1531286

gat.bias f4 [64]
0	0xbcdd2e8e	-0.026999738
1	0xbcbc2bc8	-0.022970095
2	0x3b9fc230	0.004875444
3	0x3aa1cfe1	0.0012345278
4	0xbb5a7735	-0.0033335213
5	0x3bddadc1	0.006765098
6	0x3b546599	0.003240919
7	0xbd34d27d	-0.04414605
8	0x3c12d3ce	0.008961631
9	0xbc59d00d	-0.013294232
10	0xba657415	-0.00087529543
11	0xbcb7c4c9	-0.022432702
12	0xbcbb0a99	-0.022832202
13	0xbc763a80	-0.015028596
14	0xbd07e11d	-0.03317367
15	0xbc8e97d2	-0.017406378
16	0xbb66a5ee	-0.0035194117
17	0x3beedc6b	0.0072894595
18	0x3c942f05	0.018088827
19	0xbca27942	-0.01983321
20	0xbd1d4bce	-0.03840237
21	0x3cb20611	0.021731408
22	0x3bc0fe1b	0.0058896667
23	0x3b76967f	0.0037626324
24	0xba93cca9	-0.0011276203
25	0x3bc9e97e	0.0061618676
26	0xbcc5d43e	-0.024149057
27	0x3bb1508a	0.0054112123
28	0xbca14d91	-0.019690307
29	0xbc090716	-0.008363506
30	0xbc8736f5	-0.016505698
31	0xbb95384d	-0.0045538307
32	0xbce095d8	-0.027415201
33	0x3c4b3003	0.012401584
34	0xbcbf3c22	-0.023344103
35	0xb90d979d	-0.00013503288
36	0xbd009df0	-0.03140062
37	0xbb22b12e	-0.0024824846
38	0x3c7600ab	0.015014808
39	0xbc562269	-0.013069727
40	0xbcdb26fd	-0.02675199
41	0x3b8ad8da	0.0042372765
42	0xbcbf15fc	-0.023325913
43	0xbd16cc06	-0.036815666
44	0xbd2b13f2	-0.04176707
45	0xbc934835	-0.017978767
46	0xbcbec432	-0.023286913
47	0xbbfd5417	-0.0077309716
48	0xbc963d0d	-0.018339658
49	0x3aeb3c46	0.001794704
50	0xbc67dd4c	-0.014151882
51	0x3bbb4dd4	0.005716065
52	0xbc1ba4ce	-0.009499742
53	0xbc84ffc5	-0.016235242
54	0xbd029c8d	-0.03188758
55	0x3b3da806	0.002893926
56	0xbb57f926	-0.00329549
57	0xbc52c814	-0.012865085
58	0xbceb52dd	-0.028726036
59	0xbcde297b	-0.027119389
60	0x3c2f0a53	0.010683614
61	0xbcd63d1e	-0.02615219
62	0xbcdf4bea	-0.027257878
63	0xbc33b05d	-0.010967341

gat.lin.weight f4 [256, 64]
0	0xbd91ba8c	-0.07115659
1	0x3e06d748	0.13168061
2	0x3c5f274d	0.01362021
3	0xbdc23185	-0.09482101
4	0x3dcacb8a	0.09902103
5	0x3c3621d2	0.011116462
6	0xbd98f0e8	-0.07467824
7	0xbde5c557	-0.1121928
8	0xbc08ae8d	-0.008342397
9	0x3d33d0c7	0.043900277
10	0xbc9ebeec	-0.019378148
11	0x3a82bfc7	0.0009975367
12	0xbdea79cb	-0.114490114
13	0x3c8ef441	0.017450454
14	0x3d6b497b	0.057443123
15	0xbddbc977	-0.10731786
16	0xbce35769	-0.027751641
17	0xbd000a1b	-0.031259637
18	0xbd7d3e42	-0.06182695
19	0x3de83758	0.11338681
20	0x3d28203a	0.04104636
21	0xbd997e54	-0.07494798
22	0xbd5bfc50	-0.05370742
23	0x3cf337aa	0.029689629
24	0xbd4c432e	-0.049868755
25	0x3e04471a	0.12917748
26	0x3dbc5cf1	0.09197415
27	0x3c3834fa	0.011243099
28	0xbdc22e17	-0.09481447
29	0x3dd402e7	0.10352116
30	0x3db8ffcb	0.09033164
31	0x3cd71557	0.026255293
32	0x3d3a5c28	0.045498043
33	0x3d866eaa	0.06564076
34	0x3e02cf80	0.12774467
35	0x3de3e528	0.111276925
36	0x3c1ebc24	0.009688411
37	0xbd65c73e	-0.056098215
38	0x3d3c7fbc	0.046020254
39	0x3da61b65	0.08110694
40	0xbdbb5691	-0.091473706
41	0x3deb082f	0.1147617
42	0xbc74b687	-0.014936096
43	0xbdcdeacd	-0.1005455
44	0xbdfde173	-0.12396517
45	0xbd7801c1	-0.060548548
46	0x3da3f3ee	0.0800551
47	0xbd9c3560	-0.07627368
48	0x3d2d4092	0.042297907
49	0xbdb796a5	-0.0896428
50	0x3cf44cf1	0.029821845
51	0xbcf6494b	-0.030064246
52	0x3c1c08ad	0.009523553
53	0x3dd7bde1	0.105342634
54	0xbce68fc8	-0.028144732
55	0xbd4a109c	-0.049332246
56	0x3be003cc	0.00683639
57	0xbdfe2904	-0.12410167
58	0x3dab19b5	0.083545126
59	0x3e11c14e	0.14233896
60	0xbd5d6b6f	-0.054057535
61	0xbd31cde7	-0.043409254
62	0xbe0afa63	-0.13572077
63	0xbd206045	-0.03915431
64	0xbde7d467	-0.113198094
65	0x3db812bd	0.08987949
66	0xbdcf6eff	-0.10128593
67	0xbc8c559c	-0.017130665
68	0x3d7a19c8	0.061059743
69	0xbe265438	-0.16243064
70	0xbde87464	-0.11350325
71	0x3d4f6392	0.050632067
72	0xbd32e635	-0.043676574
73	0x3e074f68	0.13213885
74	0xbd77e891	-0.060524527
75	0x3dc06a91	0.09395326
76	0xbd32940f	-0.04359823
77	0x3d98b085	0.074555434
78	0xbe01801a	-0.12646523
79	0x3db32041	0.08746386
80	0xbb2f77e6	-0.0026774346
81	0x3cc8bdcd	0.024504567
82	0x3de95935	0.11393968
83	0xbc9130c3	-0.017723447
84	0xbe00eafc	-0.1258964
85	0xbd8eef81	-0.069792755
86	0x3dedd192	0.11612238
87	0x3c09d4f9	0.008412593
88	0x3dd7ecbe	0.10543202
89	0xbdca45f1	-0.098766215
90	0x3c9119fb	0.017712584
91	0x3ba65669	0.005076219
92	0x3d8f1b88	0.06987673
93	0x3da39170	0.079867244
94	0xbd95f419	-0.073219486
95	0x3d34ed5d	0.04417168
96	0x3da9e3f0	0.08295429
97	0xbd3d0867	-0.04615059
98	0xbb8bfe05	-0.004272225
99	0x3b88eb23	0.004178421
100	0x3de5dd28	0.11223823
101	0xbe02032d	-0.12696524
102	0xbe043686	-0.12911424
103	0x3dab1489	0.08353526
104	0xbdae2b75	-0.085043825
105	0x3bc10db2	0.005891525
106	0xbcb4a018	-0.022048995
107	0x3d827897	0.06370657
108	0xbb50d84b	-0.0031867202
109	0x3bfc7218	0.0077040307
110	0xbdfdddb3	-0.123958014
111	0x3d240557	0.040044155
112	0x3d53ace6	0.05167856
113	0x3d4c7666	0.0499176
114	0x3dc56d07	0.09639936
115	0xbd560e1a	-0.052259542
116	0xbde0c0e2	-0.109742895
117	0xbd8f31ad	-0.06991897
118	0x3ce80b5b	0.028325727
119	0x3d31fc4c	0.0434535
120	0xbe0530f4	-0.13006955
121	0x3db5f862	0.08885266
122	0xbd182c41	-0.03715158
123	0xbd6115e8	-0.054952532
124	0x3dd43bd4	0.10362974
125	0x3db231db	0.087009154
126	0xbd5ef03d	-0.054428328
127	0xbd373b26	-0.044734143
128	0x3d56314b	0.052293103
129	0x3e230be1	0.159225
130	0x3cb1f653	0.021723902
131	0xbdcf33ea	-0.10117324
132	0x3e5447f6	0.20730576
133	0xbceaacfb	-0.028646937
134	0xbdab444d	-0.08362637
135	0x3de3ad1f	0.111170046
136	0x3db01a4e	0.08598767
137	0xbc505a87	-0.012716896
138	0x3e13f430	0.14448619
139	0xbdb6061d	-0.08887885
140	0xbddea46c	-0.10871205
141	0xbe066718	-0.13125265
142	0x3db95305	0.09049038
143	0x3bdbe480	0.006710589
144	0x3cb62b7d	0.022237534
145	0xbd6cb558	-0.05779013
146	0x3d5ad496	0.053425394
147	0xbd44019c	-0.047853097
148	0x3d12e4f9	0.035862897
149	0xbdf139ea	-0.11778624
150	0xbe0b49c6	-0.13602361
151	0xbb85e1f1	-0.004085772
152	0xbe2be448	-0.16786301
153	0xbe029a24	-0.12754112
154	0xbd4d7da6	-0.050168656
155	0x3cb815a6	0.02247126
156	0x3dfe63e1	0.12421394
157	0xbe0f6758	-0.14004266
158	0x3e0bb872	0.13644579
159	0xbde5cfcf	-0.11221277
160	0xbe2a1afa	-0.16611853
161	0x3d4e0ff2	0.050308175
162	0x3dc954f9	0.098306604
163	0xbe0097b2	-0.12557867
164	0x3bedff72	0.0072631175
165	0xbd003d5e	-0.031308524
166	0xbd432dbd	-0.04765104
167	0xbe58322e	-0.21112892
168	0x3e3e9c10	0.1861422
169	0xbda7cab4	-0.081929594
170	0x3d3b8200	0.045778275
171	0xbc3b75f9	-0.011441701
172	0x3d0283f9	0.03186414
173	0xbe1e942e	-0.15486214
174	0xbd83a0b9	-0.0642714
175	0xbc18c684	-0.009324674
176	0x3d821e78	0.06353468
177	0xbe14af70	-0.14520049
178	0xbde43835	-0.11143533
179	0xbe2bc522	-0.16774419
180	0xbd93114c	-0.071810335
181	0xbe11eaab	-0.14249675
182	0xbc61895b	-0.013765658
183	0x3d7a4038	0.0610964
184	0x3de696d1	0.11259235
185	0xbe0fedac	-0.14055508
186	0xbe26b3ee	-0.16279575
187	0xbdc93329	-0.09824211
188	0xbe0899a8	-0.13339865
189	0x3e027563	0.12740092
190	0xbe0ecd79	-0.13945569
191	0x3e19855f	0.14992283
192	0x3dc6c586	0.09705643
193	0x3d2372ae	0.03990429
194	0x3ce2a11a	0.02766471
195	0xb7843fce	-1.5765338e-05
196	0xbdcc6e0b	-0.099819265
197	0xbd8f8681	-0.070080765
198	0xbdbbd2aa	-0.0917104
199	0x3d40f057	0.047104206
200	0xbd965e6c	-0.07342228
201	0xbda611bf	-0.081088535
202	0x3ddcfd06	0.10790448
203	0x3e2b46ce	0.16726229
204	0x3de2e3b0	0.11078584
205	0xbdbec3ae	-0.09314667
206	0x3d293d9f	0.041318532
207	0x3e88ddc8	0.26731706
208	0xbcbf2d0f	-0.023336915
209	0xbe6f58b6	-0.23373684
210	0x3decee62	0.115689054
211	0x3da2fefc	0.07958791
212	0xbbe035e7	-0.006842363
213	0xbdc4d822	-0.096115366
214	0x3e18d9bb	0.14926808
215	0x3e373889	0.1789266
216	0xbd6f1e72	-0.058378644
217	0xbdb9adfa	-0.090663865
218	0xbd715bda	-0.058925487
219	0xbd9bf856	-0.07615726
220	0xbe1dae74	-0.1539858
221	0x3e028e64	0.1274963
222	0xbda33b7a	-0.07970329
223	0x3e13233f	0.14368914
224	0xbeadc9b2	-0.33942944
225	0x3dc3ac21	0.09554315
226	0x3e401e34	0.18761522
227	0xbd64751f	-0.055775758
228	0xbcfbc7b1	-0.030734869
229	0xbe38abc1	-0.18034269
230	0xbe38994a	-0.18027225
231	0xbe0ebcfd	-0.13939281
232	0xbbef31a1	-0.0072996174
233	0xbd6a12c5	-0.057146806
234	0x39a37441	0.000311764
235	0xbe869a22	-0.2628947
236	0x3e66d983	0.22543912
237	0xbe4bf11c	-0.19916195
238	0xbe478e1b	-0.19487803
239	0xba1769c4	-0.0005775953
240	0x3cddd7d4	0.027080454
241	0x3cc95baa	0.024579842
242	0x3d726a56	0.05918344
243	0xbe4dba37	-0.20090567
244	0x3d88af32	0.06674041
245	0xbcb3f4e8	-0.021967366
246	0x3e02255e	0.12709567
247	0x3d8f1d25	0.06987981
248	0x3d0c2585	0.03421547
249	0x3c5e3729	0.013562956
250	0x3e1d2971	0.1534784
251	0x3e0edf1a	0.13952294
252	0xbd9ea2b1	-0.07745875
253	0xbdeeadd6	-0.1165425
254	0x3cd3578f	0.025798587
255	0x3dc3a2d6	0.09552543

predictor.1.weight f4 [1, 64]
0	0xbda23164	-0.07919577
1	0xbd2682c3	-0.040652048
2	0x3d2a0a17	0.04151353
3	0x3dab4069	0.08361895
4	0xbd253774	-0.040336087
5	0x3d702ac0	0.05863452
6	0x3e08f215	0.13373597
7	0x3e9a850f	0.3017964
8	0x3ea14c28	0.31503415
9	0x3e2d581b	0.16928141
10	0xbc944726	-0.018100332
11	0xbe1f0984	-0.15530974
12	0x3ca6e5ee	0.02037331
13	0x3ddb2c9c	0.10701868
14	0xbd2363cb	-0.039890092
15	0x3be26ab2	0.0069096917
16	0x3e85e1ce	0.26148838
17	0x3d8e104b	0.069367014
18	0x3d89c8da	0.067277625
19	0xbe0285ca	-0.12746349
20	0x3d44fdf4	0.04809375
21	0x3e61d7ea	0.22055021
22	0x3d9b5a7a	0.075856164
23	0xbd4bb3fd	-0.049732197
24	0x3e5a2e12	0.21306637
25	0xbe9ff9f7	-0.31245396
26	0xbda77b66	-0.08177833
27	0x3dc519fb	0.09624096
28	0xbd925d6c	-0.07146725
29	0x3d19eb3f	0.037577864
30	0x3e824117	0.25440285
31	0xbe6a671d	-0.22890897
32	0xbc9a2bd9	-0.018819736
33	0x3ceb4a2f	0.028721897
34	0xbb9529b9	-0.004552093
35	0xbea0b9e8	-0.31391835
36	0xbe2f87a4	-0.17141587
37	0xbec82d9f	-0.39097306
38	0x3e9dc6b3	0.30815658
39	0xbae7aa5a	-0.001767467
40	0x3f1425f7	0.5787043
41	0xbdda3425	-0.10654477
42	0x3de0a266	0.10968475
43	0xba8e0772	-0.0010835959
44	0x3da5c02f	0.08093297
45	0x3ce98a11	0.028508218
46	0x3ca0e6de	0.019641336
47	0xbe1106e7	-0.1416279
48	0xbce4165b	-0.027842691
49	0x3e4e3d8f	0.2014067
50	0x3e5110c5	0.20416553
51	0x3dd727d3	0.10505643
52	0xbd2cd6aa	-0.042196907
53	0xbd94aa22	-0.07259013
54	0x3c100aa5	0.0087916
55	0xbd880074	-0.066407114
56	0x3eadba46	0.33931178
57	0xbdb9714b	-0.09054812
58	0xbc3031f2	-0.010754095
59	0xbeaa0e2f	-0.33213946
60	0xbe9c2318	-0.30495524
61	0x3ee17994	0.4403807
62	0x3d9885e5	0.07447413
63	0x3e2599df	0.16171978
