saved_models/stockkan_model.pth (torch, 117908 bytes, 7 tensors)

encoder.0.weight f4 [64, 180]
-0.056805898 0.013168006 -0.019089015 0.07253594 0.06311735 -0.0035741532 -0.029023923 -0.034071352
0.056630973 0.0018881783 0.05514752 0.02207775 -0.0070054564 0.045869533 0.0026263187 -0.035439394
-0.0068740514 -0.0064186957 0.034226608 0.038143594 -0.040868066 0.0060746553 -0.06277488 0.07315466
-0.0034273851 0.034099326 -0.036608562 0.023751454 0.028558224 0.04368963 0.072089136 0.07072437
0.02894121 -0.018375417 0.03462811 -0.073837996 0.00057343295 -0.03517372 -0.006925213 0.04362223
0.009905052 0.043180726 0.0016240439 0.030783264 0.064291954 0.06861499 0.005284376 -0.07182422
-0.066089906 -0.0052594435 0.010780543 0.062238526 0.031034693 0.010482751 0.00815473 0.00865469
-0.06534872 -0.0031089168 -0.040946748 0.016261684 -0.055572357 -0.00033117423 -0.029955214 0.044799786
0.06893742 0.012502326 -0.053926572 0.06592697 0.032554004 0.067157336 0.061343417 -0.0024119066
0.06833963 -0.038986437 0.008135378 0.07267403 0.038878713 -0.017456096 0.051951714 0.062584415
-0.0266229 0.0021717006 -0.05819949 -0.044896662 0.04472925 0.068357736 -0.028410248 -0.010377566
0.020525908 -0.020663818 0.023532217 -0.041473374 -0.0031338846 -0.022922745 -0.036621206 -0.053777855
0.020910777 0.007017283 -0.011391498 -0.037392292 -0.037462424 0.024479482 0.05978502 0.03232359
-0.06484332 0.0109177325 -0.0018603494 -0.039743334 -0.060751077 -0.04517589 0.043355197 -0.043757454
0.04326024 0.016133487 -0.02372813 -0.026223976 0.028854249 0.011511646 0.026235279 -0.009446934
0.0023802482 0.016504264 0.059378017 -0.04858549 -0.027837757 0.06932548 -0.008675482 -0.00316262
0.03741081 0.05313501 -0.037778825 -0.057022516 0.061621726 -0.043281972 -0.03591548 -0.04825021
-0.032814264 -0.0027581772 0.047443714 -0.060485736 -0.06485758 0.027299732 -0.018050257 -0.06970006
0.017043691 -0.04131756 -0.04638776 -0.0071190824 -0.010029181 0.065024175 0.07137662 -0.052060906
-0.021858575 -0.035061136 0.016647894 0.0024776137 0.019222766 -0.05238882 0.019500984 0.022941139
0.010316772 -0.046314724 -0.0049546766 0.03763012 -0.06932077 -0.07169058 -0.067229465 0.059198994
-0.047461413 -0.033540554 -0.008164469 0.026133657 0.050488017 -0.069288 -0.062534034 -0.053501397
0.047441855 -0.051808998 -0.005026088 -0.056485627 -0.13117336 0.22607289 0.15090494 -0.16616227
0.34811762 0.09688625 0.051715314 0.26313108 0.05559261 -0.03856069 0.09499555 0.03314579
-0.0024858587 -0.051510647 -0.050115038 -0.12939939 -0.04095504 0.013196408 0.01902995 -0.106644526
-0.0978875 0.15042968 0.044686273 -0.0032983988 0.036870513 0.03273903 -0.012688295 0.017190306
0.0041872915 -0.038028877 -0.21036002 0.10442984 -0.08311815 0.15875319 0.044316765 -0.07399779
0.13688979 0.10402192 -0.05125837 0.07079952 0.19655542 0.010562535 -0.14256895 0.02692803
-0.036126293 0.06700357 0.24179098 -0.014851417 0.12923396 0.21606767 -0.1016639 -0.12065844
0.01705974 -0.049409337 -0.11255839 -0.023699049 -0.10354986 0.047921862 0.12351368 -0.03945191
0.08265903 0.021077612 -0.1333642 -0.17462315 -0.06216011 -0.13167495 -0.0050725783 -0.121477105
-0.039508365 0.05110557 -0.14210418 -0.077959456 -0.033101916 -0.042116914 -0.07385262 0.23982173
00000000: 4dad 68bd 9fbe 573c 9160 9cbc b98d 943d
00000010: ab43 813d 573c 6abb 94c3 edbc 678e 0bbd
00000020: e1f5 673d c07c f73a 5ee2 613d 66dc b43c
00000030: 078e e5bb b1e1 3b3d 511e 2c3b e628 11bd
00000040: b93f e1bb ec53 d2bb 3331 0c3d 753c 1c3d
00000050: 4665 27bd e70d c73b 1e90 80bd 1cd2 953d
00000060: fb9d 60bb bcab 0b3d dcf2 15bd 6992 c23c
00000070: f0f2 e93c e6f3 323d 78a3 933d f0d7 903d
00000080: 1e16 ed3c 0b88 96bc 34d6 0d3d 6038 97bd
00000090: 6f52 163a 5212 10bd e6ec e2bb 39ad 323d
000000a0: cd48 223c 46de 303d dfdd d43a 2f2d fc3c
000000b0: 80ab 833d 0486 8c3d 8f28 ad3b 9418 93bd
000000c0: 255a 87bd 6957 acbb e0a0 303c d3ed 7e3d
000000d0: 783c fe3c d8bf 2b3c 6b9b 053c 67cc 0d3c
000000e0: 8dd5 85bd f8be 4bbb c7b7 27bd 3937 853c
000000f0: d79f 63bd 74a1 adb9 a364 f5bc fb7f 373d
00000100: 102f 8d3d 8ed6 4c3c 1ce2 5cbd b804 873d
00000110: 5957 053d c989 893d 3c43 7b3d 1411 1ebb
00000120: a6f5 8b3d 3eb0 1fbd 404a 053c 1fd6 943d
00000130: 493f 1f3d 1600 8fbc 52cb 543d 422c 803d
00000140: 4518 dabc 1753 0e3b 9762 6ebd 90e5 37bd
00000150: 0536 373d 24ff 8b3d 9cbc e8bc ab06 2abc
00000160: f325 a83c 2b47 a9bc a3c6 c03c fcdf 29bd
00000170: dc61 4dbb 7bc8 bbbc 1e00 16bd 2b46 5cbd
00000180: 144d ab3c 3cf1 e53b 68a3 3abc a928 19bd
00000190: 3372 19bd 3289 c83c 23e1 743d be65 043d
000001a0: 93cc 84bd 4ae0 323c f8d6 f3ba e8c9 22bd
000001b0: 1fd6 78bd 5b0a 39bd 3895 313d 043b 33bd
000001c0: a631 313d 602a 843c 7f61 c2bc aad3 d6bc
000001d0: bf5f ec3c 589b 3c3c 5eeb d63c 50c7 1abc
000001e0: f0fd 1b3b f333 873c 5d36 733d 9401 47bd
000001f0: 020c e4bc 84fa 8d3d 9c23 0ebc f543 4fbb
00000200: 143c 193d 19a4 593d f8bd 1abd 7190 69bd
00000210: 1067 7c3d 7048 31bd 1c1c 13bd 03a2 45bd
00000220: 4068 06bd 89c2 34bb 5754 423d e4bf 77bd
00000230: 0dd4 84bd b0a3 df3c 22de 93bc e8be 8ebd
00000240: 369f 8b3c 9a3c 29bd 1801 3ebd 3147 e9bb
00000250: 6f51 24bc 652b 853d e82d 923d d13d 55bd
00000260: c110 b3bc 449c 0fbd 2a61 883c 765f 223b
00000270: 1079 9d3c a995 56bd 87c0 9f3c 0eef bb3c
00000280: ae07 293c 82b4 3dbd d75a a2bb 0a22 1a3d
00000290: 0cf8 8dbd 83d2 92bd 9aaf 89bd a57a 723d
000002a0: e666 42bd d261 09bd 44c4 05bc 4016 d63c
000002b0: 86cc 4e3d dee6 8dbd d811 80bd 4824 5bbd
000002c0: 6452 423d ac35 54bd e2b1 a4bb 795d 67bd
000002d0: 4f52 06be a77f 673e d386 1a3e 7126 2abe
000002e0: 793c b23e 4c6c c63d 70d3 533d 1eb9 863e
000002f0: 14b5 633d d0f1 1dbd 078d c23d e1c3 073d
00000300: cae9 22bb d4fc 52bd 6d45 4dbd 4681 04be
00000310: 79c0 27bd bf35 583c b3e4 9b3c 7268 dabd
00000320: 3e79 c8bd 3d0a 1a3e f408 373d f329 58bb
00000330: 8905 173d 5c19 063d 91e2 4fbc afd2 8c3c
00000340: 8c35 893b 2bc4 1bbd 9e68 57be 50df d53d
00000350: d939 aabd 3290 223e 7f85 353d 278c 97bd
00000360: d62c 0c3e 7209 d53d 4cf4 51bd 57ff 903d
00000370: d345 493e 7c0e 2d3c 98fd 11be 2c98 dc3c
00000380: 2af9 13bd 2b39 893d 0e98 773e 5c53 73bc
00000390: e855 043e d840 5d3e 2a35 d0bd c61b f7bd
000003a0: dec0 8b3c 7261 4abd 0385 e6bd 8224 c2bc
000003b0: f311 d4bd b749 443d bef4 fc3d 5398 21bd
000003c0: 2349 a93d f5aa ac3c a090 08be 69d0 32be
000003d0: 999b 7ebd ccd5 06be df37 a6bb fdc8 f8bd
000003e0: 86d3 21bd 1354 513d c283 11be 35a9 9fbd
000003f0: e095 07bd c982 2cbd 0b40 97bd d493 753e

encoder.0.bias f4 [64]
-0.07064975 -0.023767835 0.011571859 -0.047431104 -0.052149713 -0.00043912523 -0.003158434 -0.053999905
-0.041168686 0.0038182302 -0.06946812 0.0146371955 -0.022428846 -0.0065257465 -0.07146094 -0.040489167
0.02176608 -0.018630797 0.0018659814 0.009295677 -0.015413565 -0.0694481 0.07082945 0.022115124
0.025005933 0.01531313 -0.03015494 -0.01940543 0.032702457 0.037869364 -0.027703946 -0.034977138
0.02791202 -0.046759106 0.052811466 -0.031089181 -0.03230937 0.0076291505 -0.06986325 0.05036852
0.018452136 0.042420205 -0.024377577 0.03441741 -0.06614035 -0.036876164 -0.04814889 0.01239601
-0.06363593 0.0052375086 -0.024353249 -0.026211865 -0.066234246 -0.071695216 -0.049873676 -0.015491038
-0.049068768 0.02081873 -0.04659154 -0.052254636 -0.06669918 -0.0025943078 0.0038033917 0.029501906
00000000: d1b0 90bd c3b4 c2bc e597 3d3c 1e47 42bd
00000010: f09a 55bd 643a e6b9 bbfd 4ebb 012f 5dbd
00000020: 7fa0 28bd 463b 7a3b 4d45 8ebd d9d0 6f3c
00000030: b3bc b7bc eed5 d5bb 1d5a 92bd f8d7 25bd
00000040: c74e b23c 9d9f 98bc f293 f43a e54c 183c
00000050: 2d89 7cbc ce3a 8ebd 080f 913d c72a b53c
00000060: 3ed9 cc3c ece3 7a3c 7e07 f7bc 23f8 9ebc
00000070: 03f3 053d e81c 1b3d 63f3 e2bc 3044 0fbd
00000080: c0a7 e43c 7a86 3fbd d650 583d bdae febc
00000090: d456 04bd f4fd f93b 7714 8fbd 394f 4e3d
000000a0: ef28 973c cfc0 2d3d 7cb3 c7bc 45f9 0c3d
000000b0: 9874 87bd 760b 17bd c537 45bd a218 4b3c
000000c0: 8e53 82bd 689f ab3b 7780 c7bc 44ba d6bc
000000d0: d2a5 87bd f1d4 92bd 5748 4cbd 1fce 7dbc
000000e0: 55fc 48bd 0b8c aa3c c5d6 3ebd f508 56bd
000000f0: 9499 88bd 4305 2abb 5342 793b fbad f13c

gat.att_src f4 [1, 4, 64]
-0.19697988 0.24122685 -0.252749 0.21177986 0.07191015 -0.11560691 0.28574893 -0.22447123
-0.07947208 0.04687471 -0.013053021 -0.18402284 -0.07062878 0.053471982 0.007518679 -0.23680565
0.09888628 0.117959045 -0.18640868 0.22078621 0.117921524 0.24803759 0.17190118 0.13763519
0.16235657 0.25296476 -0.21982948 -0.022530107 0.012851278 0.058733616 0.17518046 0.2205219
-0.21646711 -0.0036786627 0.13598193 -0.26015985 0.21867198 -0.18012178 0.060139112 -0.27611217
0.15093066 -0.16018899 0.0019706816 0.22074574 0.21444814 0.26455364 0.23426907 0.10926541
0.230652 0.16801298 0.056390792 -0.25737655 -0.069623664 -0.27636263 -0.2747413 0.15719056
-0.30801564 0.005786984 -0.10024281 0.1594945 -0.18495186 -0.11430576 -0.12582599 0.032858163
0.15071253 0.2255584 0.011572348 0.28834623 0.07512447 -0.0812846 -0.26586023 -0.16405077
-0.29439548 0.060123887 -0.14834434 0.27463326 -0.30137557 0.39644516 -0.24573359 -0.15979984
-0.26921263 -0.15702085 0.3951465 0.14378498 -0.09300322 -0.16223723 -0.101833574 0.1274533
0.19900273 -0.23184843 0.31058186 -0.09824572 -0.19671312 -0.11964883 0.29864332 -0.14945863
-0.20742504 -0.042486265 0.04613027 -0.21324396 0.3948424 0.075703174 0.19745253 0.31623042
-0.118421696 0.14077199 -0.004883778 -0.009657735 0.052715007 0.24983433 -0.09418149 -0.113228835
0.14632428 0.33683485 -0.23271987 0.2569759 0.13738865 0.17043479 0.22763184 0.32981798
0.28689083 0.19322456 -0.17033425 0.3187783 -0.28323302 -0.14430077 0.022244582 0.041595858
-0.13116644 -0.3506706 0.2890386 -0.0786751 0.1638543 0.008489752 -0.35441333 -0.21807894
0.047148407 -0.29624358 0.053994477 0.29503605 0.054472223 0.17734504 0.104406685 0.1259885
0.17512493 -0.13342194 -0.031775303 -0.03573495 -0.21607152 0.22714712 -0.16740619 0.21526675
0.32028702 0.20695823 -0.18441807 0.08480383 -0.16094407 -0.21761522 -0.22023608 -0.2665744
-0.08906775 -0.19035086 -0.16295198 0.029368354 0.3010394 -0.057988405 0.2810572 -0.1619022
0.067209855 0.14279385 0.12404786 0.08233011 -0.0015980214 -0.0012391433 -0.10743062 -0.06272539
-0.17861237 0.25283214 0.2636953 0.15359007 0.03278548 -0.07946676 -0.10945363 0.35757577
0.07540035 -0.09905923 0.3644735 -0.032379147 -0.09182062 0.3428172 -0.19532996 0.12224266
-0.041896142 0.15630329 0.038513515 -0.3317448 -0.10045526 0.27232864 0.2817279 0.12755865
0.10090583 0.16940399 0.17027931 -0.0058823926 0.28867114 0.111750074 -0.29202712 0.1418455
-0.11804365 -0.29615873 -0.16440377 0.3172799 0.020403283 -0.13565516 0.10913846 -0.0050802086
-0.17933802 0.15493536 0.24029721 -0.12771775 -0.0040798704 0.2258141 -0.073863365 -0.044024844
0.10247354 0.1187195 0.11367707 0.19164945 -0.10609195 0.039489854 0.23117305 -0.032144666
-0.23176995 -0.059070636 -0.21333876 0.14711367 0.02901114 0.27705976 0.032788437 0.14990482
0.15842927 0.2781369 -0.18255903 0.021545628 -0.14588879 0.113066405 0.13117345 0.08329684
-0.10359331 -0.07384909 -0.18797687 0.16545844 0.07862091 0.08678134 0.22097565 0.20400108
00000000: 18b5 49be 2c04 773e 5168 81be d2dc 583e
00000010: a145 933d 51c3 ecbd af4d 923e c9db 65be
00000020: 42c2 a2bd b2ff 3f3d 57dc 55bc 7c70 3cbe
00000030: d2a5 90bd 7005 5b3d 405f f63b 2e7d 72be
00000040: e484 ca3d 8394 f13d ebe1 3ebe c815 623e
00000050: d780 f13d 91fd 7d3e dd06 303e 3df0 0c3e
00000060: cd40 263e 9984 813e fb1a 61be 0f91 b8bc
00000070: 2b8e 523c a992 703d 8262 333e 7ed0 613e
00000080: 8ea9 5dbe b815 71bb d93e 0b3e ac33 85be
00000090: 8ceb 5f3e d871 38be 6e54 763d 935e 8dbe
000000a0: 918d 1a3e 9508 24be 8d26 013b 2c0b 623e
000000b0: 4b98 5b3e 9373 873e 3be4 6f3e 8bc6 df3d
000000c0: 0a30 6c3e 980b 2c3e 08fa 663d dcc6 83be
000000d0: da96 8ebd 677f 8dbe e4aa 8cbe 90f6 203e
000000e0: 3ab4 9dbe bea0 bd3b 1a4c cdbd 8752 233e
000000f0: 0564 3dbe 2319 eabd 87d8 00be 4896 063d
00000100: 6354 1a3e c8f8 663e f299 3d3c 1ea2 933e
00000110: dcda 993d 8a78 a6bd d51e 88be edfc 27be
00000120: 01bb 96be 7744 763d 94e7 17be bb9c 8c3e
00000130: e64d 9abe dcfa ca3e 96a1 7bbe 92a2 23be
00000140: 3dd6 89be 13ca 20be a450 ca3e 5f3c 133e
00000150: 7978 bebd 8421 26be 1f8e d0bd 1e83 023e
00000160: 5fc7 4b3e ad69 6dbe 9604 9f3e 0d35 c9bd
00000170: 2a6f 49be 720a f5bd c7e7 983e af0b 19be
00000180: 3b67 54be 1406 2ebd 18f3 3c3d a05c 5abe
00000190: c828 ca3e 440a 9b3d ff30 4a3e f4e8 a13e
000001a0: 1387 f2bd 8826 103e 1908 a0bb 7a3b 1ebc
000001b0: b1eb 573d 92d4 7f3e 3ae2 c0bd 85e4 e7bd
000001c0: 08d6 153e 9e75 ac3e 1e4e 6ebe 5892 833e
000001d0: 9caf 0c3e 7586 2e3e 5218 693e e7dd a83e
000001e0: 5be3 923e a9dc 453e 1a6c 2ebe e936 a33e
000001f0: eb03 91be 95c3 13be 453a b63c 6b60 2a3d
00000200: 7f50 06be 198b b3be defc 933e 6920 a1bd
00000210: 6cc9 273e 9a18 0b3c aa75 b5be 1650 5fbe
00000220: b01e 413d 3dad 97be 5029 5d3d f70e 973e
00000230: 441e 5f3d f099 353e 2cd3 d53d 2103 013e
00000240: f353 333e c39f 08be d226 02bd d05e 12bd
00000250: da41 5dbe 4199 683e 876c 2bbe e36e 5c3e
00000260: a9fc a33e dcec 533e 17d8 3cbe a1ad ad3d
00000270: 86ce 24be 86d6 5ebe 9185 61be 717c 88be
00000280: 2769 b6bd 56eb 42be e2dc 26be e795 f03c
00000290: d621 9a3e 4085 6dbd bbe6 8f3e b1c9 25be
000002a0: 52a5 893d 8d38 123e ce0c fe3d b09c a83d
000002b0: b374 d1ba c06a a2ba 9604 dcbd 2b76 80bd
000002c0: 29e6 36be 3773 813e 1203 873e b746 1d3e
000002d0: 114a 063d 78bf a2bd 3a29 e0bd 2c14 b73e
000002e0: 806b 9a3d 91df cabd 459c ba3e ff9f 04bd
000002f0: 730c bcbd bc85 af3e 9404 48be 5c5a fa3d
00000300: 4a9b 2bbd f80d 203e 59c0 1d3d 74da a9be
00000310: 7dbb cdbd a96e 8b3e a43e 903e bc9e 023e
00000320: b7a7 ce3d 3d78 2d3e b35d 2e3e 16c1 c0bb
00000330: b4cc 933e 39dd e43d 9484 95be f23f 113e
00000340: dfc0 f1bd 1ea2 97be 7659 28be 8372 a23e
00000350: c924 a73c 30e9 0abe fc83 df3d e177 a6bb
00000360: 63a4 37be 60a7 1e3e 7910 763e 71c8 02be
00000370: 6fb0 85bb d03b 673e ad45 97bd 6553 34bd
00000380: a6dd d13d 3623 f33d 86cf e83d c13f 443e
00000390: bc46 d9bd 1dc0 213d a1b8 6c3e 20aa 03bd
000003a0: 1a55 6dbe 0df4 71bd 7a75 5abe f7a4 163e
000003b0: c5a8 ed3c c7da 8d3e 2b4d 063d a680 193e
000003c0: 483b 223e f667 8e3e c1f0 3abe 7580 b03c
000003d0: df63 15be 5c8f e73d 5552 063e 8997 aa3d
000003e0: bb28 d4bd 313e 97bd 027d 40be f06d 293e
000003f0: 0004 a13d 6aba b13d 7147 623e a9e5 503e

gat.att_dst f4 [1, 4, 64]
-0.065636836 0.29072437 -0.2527257 -0.2768546 -0.26211256 0.23054112 0.2713966 -0.15516421
-0.25662574 -0.24731472 0.064656 -0.028907593 -0.2902947 -0.10308385 0.055993874 0.21315415
0.1949744 0.030616961 -0.22948457 0.26286498 -0.16439696 -0.29615778 -0.29589084 -0.13352133
-0.23423904 -0.24731694 -0.24546118 -0.18218216 0.122398965 0.018179499 -0.0621596 0.041858736
0.17913242 -0.109133326 -0.15549399 0.05258327 -0.20920111 -0.06074249 0.053387437 0.20353451
0.030393567 0.25918433 -0.13099843 -0.25397003 -0.024665168 0.026780076 -0.27668333 0.117134176
0.134701 0.20599125 -0.014941204 0.07108256 -0.18751314 0.16953388 0.11915894 -0.0639229
-0.2760831 -0.28506714 0.08474566 -0.13206847 0.21813391 0.13032696 0.26673397 -0.10653066
-0.13923611 0.0037918054 0.2544007 0.2158106 -0.09086656 0.23679037 0.3088681 0.1221313
0.06831517 -0.049260903 0.26254103 -0.2325927 -0.05962586 -0.17365433 -0.047204033 -0.19395187
-0.047903165 -0.25253227 0.26850238 -0.14038335 0.024658604 0.09570746 -0.032365486 -0.008574938
-0.23450778 -0.087672435 0.16132843 0.26305312 0.33926225 -0.082995124 -0.20192418 0.12029947
0.14173226 0.21515149 0.06310429 -0.2170198 -0.17024356 0.12314453 0.014714875 -0.15776607
-0.17857721 0.12078002 0.077774234 -0.28002498 -0.1881447 -0.018703269 -0.1752857 0.1370241
0.09982138 0.015185326 0.12025061 -0.11335118 0.007359061 -0.19502115 -0.20568255 -0.08127824
-0.2739572 0.29321605 0.23698063 0.16753253 0.037446287 0.1637325 -0.24187171 -0.1509107
0.19071728 -0.04180727 0.25564077 -0.3508324 -0.091101274 0.09047681 0.023908183 0.094413415
-0.07046368 0.2195261 0.16199684 -0.15811254 0.02975737 -0.15289652 -0.106624186 -0.20125
0.010977326 -0.20068271 0.1384927 0.21496975 -0.17369056 0.07683998 0.14417 0.00722574
0.13762423 -0.32264856 0.16974902 0.0354989 0.2056505 0.16119559 0.25346836 -0.09802168
0.21621767 -0.03439709 -0.07401607 0.16011299 -0.0033644303 0.14640848 -0.16376671 -0.06917098
-0.010315041 -0.1373214 -0.053893607 -0.07347451 0.07914198 -0.0045421068 0.15962774 -0.0838704
0.19808075 -0.1254191 0.2891044 0.2368095 -0.116414234 -0.277832 0.27936754 0.08937059
0.079584315 0.094757356 -0.21098784 0.072407864 -0.22659904 -0.09857396 -0.0035791902 0.16359319
0.18685362 0.11239113 -0.3051506 -0.21682924 -0.21007529 0.09393894 0.22353412 -0.27418926
0.25745836 -0.20375834 0.0798965 -0.120370984 0.065461144 -0.04137655 -0.026738506 0.20082474
-0.2270215 0.0010507008 -0.14028966 -0.12459568 0.13836308 -0.27113113 0.23977031 -0.16479324
-0.19763584 0.054258574 0.1322731 0.11708905 0.21313557 0.07726924 0.28225583 0.22411563
-0.08597151 0.0920345 -0.0134800235 0.07236758 -0.09062985 -0.21846384 -0.1625158 -0.053558785
0.020680344 -0.021591958 -0.0676042 0.19237545 0.17309485 -0.058396153 0.28667536 0.19049689
0.2661166 -0.20834547 0.045114167 0.239741 -0.032494735 0.2601221 -0.20609374 0.24497928
0.2175401 0.21469995 -0.19267653 -0.2974273 0.043063566 -0.2604374 -0.07567185 0.18732275
00000000: 9b6c 86bd d3d9 943e 4365 81be e3bf 8dbe
00000010: 9e33 86be f912 6c3e 7ff4 8a3e 5ee3 1ebe
00000020: 7364 83be 1240 7dbe 5d6a 843d 9ecf ecbc
00000030: 82a1 94be a01d d3bd d559 653d 1545 5a3e
00000040: 5ea7 473e 6cd0 fa3c 01fe 6abe 3d96 863e
00000050: ad57 28be fea1 97be 017f 97be d1b9 08be
00000060: 5cdc 6fbe a740 7dbe 2d5a 7bbe f68d 3abe
00000070: 4fac fa3d 2ced 943c 119b 7ebd 1174 2b3d
00000080: 7d6e 373e 4b81 dfbd d139 1fbe 8e61 573d
00000090: d138 56be 1ecd 78bd c9ac 5a3d 5a6b 503e
000000a0: eefb f83c cfb3 843e 7424 06be 5c08 82be
000000b0: 9b0e cabc e461 db3c 70a9 8dbe 0be4 ef3d
000000c0: 0fef 093e 5fef 523e f4cb 74bc bc93 913d
000000d0: 7203 40be 4a9a 2d3e 9a09 f43d 02ea 82bd
000000e0: c45a 8dbe 52f4 91be 228f ad3d f53c 07be
000000f0: 7f5e 5f3e 6e74 053e 5b91 883e bf2c dabd
00000100: e993 0ebe f07f 783b cf40 823e 74fd 5c3e
00000110: 3f18 babd 2d79 723e f623 9e3e fa1f fa3d
00000120: d3e8 8b3d cdc5 49bd c76b 863e c82c 6ebe
00000130: 3f3a 74bd 71d2 31be 0459 41bd 529b 46be
00000140: 1c36 44bd e94b 81be 2579 893e a7c0 0fbe
00000150: d700 ca3c 4602 c43d ac91 04bd e67d 0cbc
00000160: cf22 70be 9b8d b3bd 4833 253e e6ae 863e
00000170: c8b3 ad3e 59f9 a9bd 36c5 4ebe 925f f63d
00000180: 4322 113e ac50 5c3e d23c 813d 703a 5ebe
00000190: 5454 2ebe 3333 fc3d a916 713c 6e8d 21be
000001a0: f2dc 36be 845b f73d 1948 9f3d 6f5f 8fbe
000001b0: 01a9 40be 9937 99bc 187e 33be 0c50 0c3e
000001c0: 276f cc3d e0cb 783c f445 f63d aa24 e8bd
000001d0: 4724 f13b a0b3 47be 729e 52be 3575 a6bd
000001e0: 1e44 8cbe 6a20 963e 0dab 723e a68d 2b3e
000001f0: 4761 193d 7ea9 273e 38ad 77be 5688 1abe
00000200: 644b 433e 1a3e 2bbd 59e3 823e 4ea0 b3be
00000210: 4e93 babd e84b b93d 18db c33c d25b c13d
00000220: 434f 90bd 73cb 603e 80e2 253e 41e8 21be
00000230: bac5 f33c e890 1cbe c85d dabd 7b14 4ebe
00000240: 3eda 333c c57f 4dbe 08d1 0d3e 0821 5c3e
00000250: f0db 31be 485e 9d3d 4da1 133e e6c5 ec3b
00000260: 5eed 0c3e 3132 a5be b0d2 2d3e 4b67 113d
00000270: 0b96 523e 7510 253e 9bc6 813e 97bf c8bd
00000280: 2a68 5d3e f7e3 0cbd bd95 97bd a9f4 233e
00000290: c67d 5cbb 1bec 153e 76b2 27be 84a9 8dbd
000002a0: 6b00 29bc fb9d 0cbe 8bbf 5cbd ce79 96bd
000002b0: 3115 a23d f4d5 94bb 7475 233e 3fc4 abbd
000002c0: aed5 4a3e dd6d 00be 7e05 943e 317e 723e
000002d0: 966a eebd ff3f 8ebe 4309 8f3e ee07 b73d
000002e0: 1afd a23d 2510 c23d 320d 58be 934a 943d
000002f0: 9409 68be 25e1 c9bd d990 6abb f984 273e
00000300: 8e56 3f3e 522d e63d b33c 9cbe 7c08 5ebe
00000310: fa1d 57be 0f63 c03d 21e6 643e 8962 8cbe
00000320: 95d1 833e 07a6 50be c7a0 a33d 1085 f6bd
00000330: 7e10 863d 757a 29bd b60a dbbc 00a5 4d3e
00000340: 5378 68be abb7 893a 18a8 0fbe 052c ffbd
00000350: 0daf 0d3e b3d1 8abe 5986 753e 8fbf 28be
00000360: 0d61 4abe 3d3e 5e3d 9972 073e 62cc ef3d
00000370: 3640 5a3e 563f 9e3d d683 903e 917e 653e
00000380: d511 b0bd 957c bc3d 51db 5cbc 7435 943d
00000390: 259c b9bd fcb4 5fbe 8b6a 26be 7560 5bbd
000003a0: d369 a93c 9ee1 b0bc 1274 8abd 12fe 443e
000003b0: c73f 313e ce30 6fbd 1dc7 923e 9e11 433e
000003c0: 6f40 883e 8458 55be a2c9 383d aa7e 753e
000003d0: 3319 05bd b92e 853e 3d0a 53be d9db 7a3e
000003e0: d5c2 5e3e 4eda 5b3e ff4c 45be 6448 98be
000003f0: 6c63 303d 0d58 85be d8f9 9abd 89d1 3f3e

gat.bias f4 [64]
0.0009888089 -0.023861246 -0.032045368 -0.0286047 -0.046375416 -0.03762294 -0.017440172 -0.013128364
-0.023854297 -0.0054364153 -0.00225 -0.026937455 -0.02732093 0.0033705253 -0.025292544 -0.00012580499
-0.0056515946 -0.0188599 0.0075247725 0.0055904984 0.013300535 -0.003087315 -0.035201505 -0.008411639
-0.0028943932 -0.0347452 -0.02989769 -0.0053015267 0.0053466917 -0.02363074 -0.026685014 -0.021548223
0.014240724 -0.0175627 0.0038530515 -0.0033101435 -0.0054168156 0.004559098 -0.0103812935 -0.0028935815
-0.008280484 0.02186901 -0.005827871 -0.017573105 -0.012601734 -0.019601492 -0.002844015 -0.015117621
-0.021677073 -0.008594892 -0.024562975 -0.0004793799 0.0006486516 -0.028874356 -0.004226154 0.0027655847
-0.026733056 -0.0022464881 -0.0055701844 -0.022502063 -0.005001419 -0.00095064304 -0.019580597 0.013551634
00000000: ec9a 813a a978 c3bc 0142 03bd 6754 eabc
00000010: 26f4 3dbd 831a 1abd b1de 8ebc 5a18 57bc
00000020: 166a c3bc f523 b2bb bc74 13bb f0ab dcbc
00000030: 25d0 dfbc 08e4 5c3b 4f32 cfbc 85ea 03b9
00000040: 0331 b9bb 1480 9abc 5e92 f63b 8030 b73b
00000050: 7dea 593c 8d54 4abb 742f 10bd f9d0 09bc
00000060: dcaf 3dbb fc50 0ebd 00ec f4bc 6eb8 adbb
00000070: 4d33 af3b 4195 c1bc 889a dabc e685 b0bc
00000080: ed51 693c a7df 8fbc 7a83 7c3b feee 58bb
00000090: 8b7f b1bb 7c64 953b 4d16 2abc 3ea2 3dbb
000000a0: deaa 07bc a326 b33c baf7 bebb 79f5 8fbc
000000b0: 8177 4ebc 4f93 a0bc a762 3abb e6af 77bc
000000c0: 1e94 b1bc 97d1 0cbc 4b38 c9bc 4855 fbb9
000000d0: 460a 2a3a ea89 ecbc 8d7b 8abb d03e 353b
000000e0: 48ff dabc d139 13bb 1886 b6bb 3f56 b8bc
000000f0: f2e2 a3bb 9334 79ba 7d67 a0bc ac07 5e3c

gat.lin.weight f4 [256, 64]
-0.031726513 -0.22641358 0.09541255 0.008921435 -0.11963144 -0.0016516428 0.17714472 -0.2816064
-0.157222 0.049246944 0.14952172 0.0679777 0.16284375 -0.14556965 -0.2143318 0.14447965
-0.15050356 0.043597896 -0.10619778 0.07955461 0.16783658 -0.056609258 -0.08842206 -0.13096954
0.045724902 0.07074397 0.19032624 0.21454291 -0.060608044 -0.037687577 -0.20583235 -0.4359083
-0.136268 -0.10268042 -0.09554684 -0.4048582 -0.04296522 0.021709703 -0.053278413 -0.024692187
-0.0011869548 -0.052049033 0.036780197 -0.034765247 -0.035069488 0.24272639 0.06438063 -0.09310615
0.11262758 -0.16055489 -0.089767896 0.24472605 0.09566576 -0.24461411 -0.0049939277 0.2625587
-0.35229853 -0.22751814 -0.10089865 0.080550216 -0.193123 -0.3056424 -0.094910465 -0.15580036
-0.09404911 -0.056776036 0.0734783 0.09892549 -0.10592705 0.0989269 0.051600054 0.07426624
-0.0152549865 -0.114290476 0.09438414 0.05290506 -0.046682432 -0.03236378 0.03668661 0.06922198
0.12144159 0.030181699 -0.10353129 -0.12362026 -0.122830376 0.07660342 0.011824359 0.051708564
0.12909207 0.051131535 -0.09303758 -0.053480312 -0.11011089 -0.1064582 -0.008100212 -0.12483326
0.10307272 0.014664375 0.11771145 -0.08360009 0.0058629704 -0.039980527 -0.00064002065 0.014117649
0.06141375 0.029247893 0.040554803 0.06964366 -0.025745682 -0.037157286 0.057287227 0.016973812
0.05203015 -0.049432207 0.07300943 -0.03503683 -0.113732 -0.14177571 -0.07923832 -0.05664482
0.090478145 -0.08513785 -0.024535138 0.0691153 -0.13344438 -0.12956344 -0.020924626 -0.08042136
-0.055242155 -0.041668594 -0.015687121 0.05606301 0.12771438 0.035950962 -0.15624201 -0.059178006
0.056581244 -0.10632629 0.06383914 0.12571147 0.07801819 0.03089694 -0.03150796 0.25558427
-0.05752588 -0.025589809 0.07550161 -0.15172598 -0.068276376 0.024726547 0.084583744 -0.034759868
-0.10661606 -0.1562712 0.021570677 -0.20174596 -0.119797304 -0.016078535 0.047896437 0.057986043
0.045170553 -0.033034246 0.018718416 0.15378855 -0.0667873 -0.051753283 -0.075279154 0.04235328
0.045358196 -0.124126665 -0.04495173 -0.09664484 0.042769883 -0.067080714 0.052705247 -0.16235176
-0.034652203 0.11111473 0.08625716 0.03692682 -0.08027758 0.05601411 0.19605014 0.124000035
0.102913044 0.029260552 0.13299966 -0.014927744 0.03553623 0.10145111 0.094161876 -0.016610058
0.049003728 -0.12259703 0.064163215 -0.035375625 -0.006806811 -0.0684905 -0.031031957 0.016356604
0.07298397 0.058645133 -0.0037687842 0.0058393995 -0.08885417 0.05079625 -0.08773114 0.053091694
0.07001812 -0.053447086 0.116806075 -0.05614018 0.06510692 0.020766472 -0.0715352 0.0104542775
-0.026677806 0.0113048125 -0.0013278727 -0.026391285 -0.07299007 0.031012662 0.0717851 0.08910892
-0.04205054 -0.06398729 -0.06439333 -0.12580302 0.028151957 -0.06859023 0.08880935 0.114776574
0.0464438 0.10552634 -0.08212367 0.024021745 0.08374948 0.09664673 0.054460093 -0.07683384
-0.042683758 -0.051404625 -0.00080990815 0.015856562 -0.045299098 0.02103724 -0.031847168 0.14189062
-0.0041485843 -0.07853711 -0.029535552 -0.074256904 0.07615038 0.073102556 -0.017331835 -0.008253372
00000000: a9f3 01bd f6d8 67be a867 c33d 362b 123c
00000010: 5401 f5bd f07b d8ba 6d65 353e b72e 90be
00000020: cefe 20be 2ab7 493d 391c 193e e437 8b3d
00000030: 83c0 263e 3610 15be cc79 5bbe 79f2 133e
00000040: 9b1d 1abe b593 323d 397e d9bd 87ed a23d
00000050: 5add 2b3e 1cdf 67bd a016 b5bd e11c 06be
00000060: 094a 3b3d 37e2 903d e2e4 423e 23b1 5b3e
00000070: 2440 78bd 4a5e 1abd b7c5 52be 5f2f dfbe
00000080: d789 0bbe 1d4a d2bd 10ae c3bd 9349 cfbe
00000090: 4cfc 2fbd 8cd8 b13c 773a 5abd 4547 cabc
000000a0: 9893 9bba 5e31 55bd d5a6 163d 0166 0ebd
000000b0: 06a5 0fbd 448d 783e fed9 833d 70ae bebd
000000c0: 4aa9 e63d 8068 24be 3bd8 b7bd 7799 7a3e
000000d0: 69ec c33d 1f7c 7abe 1aa4 a3bb 186e 863e
000000e0: 7960 b4be 84fa 68be f4a3 cebd 83f7 a43d
000000f0: 09c2 45be 297d 9cbe 6b60 c2bd 218a 1fbe
00000100: d29c c0bd fd8d 68bd ca7b 963d 7399 ca3d
00000110: 48f0 d8bd 309a ca3d 945a 533d e618 983d
00000120: 0df0 79bc 2011 eabd 794c c13d fab2 583d
00000130: 1436 3fbd e28f 04bd b344 163d 41c4 8d3d
00000140: 5eb6 f83d 9c3f f73c 3708 d4bd 9e2c fdbd
00000150: 7e8e fbbd 41e2 9c3d f5ba 413c 5ccc 533d
00000160: b630 043e 4d6f 513d 7d8a bebd 2c0e 5bbd
00000170: d181 e1bd c206 dabd c0b6 04bc 95a8 ffbd
00000180: ca17 d33d d942 703c b312 f13d 8636 abbd
00000190: 291e c03b 9fc2 23bd 0fc7 27ba b64d 673c
000001a0: fc8c 7b3d 4799 ef3c cb1c 263d 56a1 8e3d
000001b0: 9ce8 d2bc 3d32 18bd 03a6 6a3d aa0c 8b3c
000001c0: 911d 553d 6d79 4abd f885 953d c782 0fbd
000001d0: 53ec e8bd a72d 11be b347 a2bd 6604 68bd
000001e0: 9b4c b93d c15c aebd eafd c8bc 538c 8d3d
000001f0: a5a5 08be 47ac 04be 1f6a abbc f4b3 a4bd
00000200: 9945 62bd b0ac 2abd 4782 80bc 54a2 653d
00000210: 8fc7 023e 5141 133d e8fd 1fbe a364 72bd
00000220: bcc1 673d 99c1 d9bd 18be 823d 82ba 003e
00000230: 00c8 9f3d 941b fd3c 7e0e 01bd f1db 823e
00000240: 42a0 6bbd b8a1 d1bc 97a0 9a3d 0e5e 1bbe
00000250: 7cd4 8bbd 548f ca3c 3e3a ad3d 5d60 0ebd
00000260: 8559 dabd 8f05 20be fdb4 b03c 7e96 4ebe
00000270: 4a58 f5bd 22b7 83bc 0e2f 443d c682 6d3d
00000280: c204 393d eb4e 07bd 5d57 993c bf7a 1d3e
00000290: c8c7 88bd 40fb 53bd f52b 9abd a27a 2d3d
000002a0: 84c9 393d 1f36 febd 4e1f 38bd bbed c5bd
000002b0: 792f 2f3d 9d61 89bd 75e1 573d 8a3f 26be
000002c0: 78ef 0dbd 1f90 e33d 98a7 b03d 9440 173d
000002d0: 9268 a4bd 0d6f 653d 5ec1 483e bbf3 fd3d
000002e0: 13c4 d23d d3b3 ef3c 1031 083e 7f93 74bc
000002f0: 708e 113d 99c5 cf3d f1d7 c03d d111 88bc
00000300: 22b8 483d 2714 fbbd 0168 833d 08e6 10bd
00000310: ab0b dfbb bf44 8cbd bb36 febc 49fe 853c
00000320: 9f78 953d e135 703d b5fd 76bb 6f58 bf3b
00000330: 2df9 b5bd bb0f 503d 62ac b3bd ad76 593d
00000340: a965 8f3d 55eb 5abd 0638 ef3d 3ff3 65bd
00000350: c756 853d 731e aa3c 0c81 92bd 6b48 2b3c
00000360: 6a8b dabc d237 393c 040c aeba 8932 d8bc
00000370: d17b 95bd 440e fe3c 1104 933d bd7e b63d
00000380: 303d 2cbd c50b 83bd a6e0 83bd 82d2 00be
00000390: ef9e e63c 0979 8cbd ade1 b53d fb0f eb3d
000003a0: db3b 3e3d 321e d83d 7430 a8bd 40c9 c43c
000003b0: d984 ab3d b9ee c53d 8c11 5f3d 0f5b 9dbd
000003c0: 2ad5 2ebd a88d 52bd 0450 54ba 9fe5 813c
000003d0: 8c8b 39bd 4a56 ac3c 2d72 02bd c64b 113e
000003e0: d9f0 87bb 10d8 a0bd 8bf4 f1bc 0114 98bd
000003f0: bbf4 9b3d cbb6 953d 7efb 8dbc 2739 07bc

predictor.1.weight f4 [1, 64]
-0.21175262 -0.09944815 0.07247337 0.013027477 -0.063623466 -0.05484012 0.19403401 -0.27130315
0.21321242 0.1981224 0.21364544 0.089557484 -0.13958484 -0.27333805 0.05200693 -0.08127254
-0.022564158 0.11381367 0.10352569 0.2725819 -0.092171356 -0.15268953 0.41289577 -0.23656435
-0.040745657 0.078326136 0.08995605 -0.056926787 -0.065033846 -0.032345682 -0.09558487 0.100772254
-0.31102714 0.12543958 0.2085708 -0.03185499 0.2157443 0.12043886 0.1694467 -0.0550541
0.11736975 0.23307538 0.17631601 -0.22226724 -0.010527166 0.06848927 0.15278913 0.026638426
0.027932698 0.034321543 0.08357875 -0.046259098 -0.06382668 0.028556965 -0.02711106 0.18155955
0.118537866 -0.3231423 -0.10230975 0.15304999 -0.013446501 0.19818698 -0.10622327 -0.063884966
00000000: aed5 58be 79ab cbbd eb6c 943d 3371 553c
00000010: 054d 82bd 09a0 60bd dab0 463e 3fe8 8abe
00000020: 5b54 5a3e 99e0 4a3e dfc5 5a3e ea69 b73d
00000030: 54ef 0ebe f7f2 8bbe 3805 553d 3872 a6bd
00000040: 78d8 b8bc 2417 e93d 4705 d43d db8f 8b3e
00000050: 56c4 bcbd a55a 1cbe 1367 d33e ed3d 72be
00000060: ebe4 26bd 7469 a03d e13a b83d 102c 69bd
00000070: 7730 85bd e87c 04bd 00c2 c3bd af61 ce3d
00000080: f33e 9fbe 3c73 003e 9593 553e 617a 02bd
00000090: 13ec 5c3e a6a8 f63d 7083 2d3e 6880 61bd
000000a0: 8d5f f03d 50ab 6e3e 2f8c 343e 069a 63be
000000b0: 227a 2cbc 1a44 8c3d c174 1c3e d438 da3c
000000c0: 1dd3 e43c bf94 0c3d 562b ab3d 2e7a 3dbd
000000d0: 90b7 82bd 4cf0 e93c 0418 debc bfea 393e
000000e0: fbc3 f23d e872 a5be c687 d1bd 23b9 1c3e
000000f0: b74e 5cbc 87f1 4a3e 968b d9bd 1fd6 82bd
